2_CNN_1/cnn_1_model.pth (torch, 10934 bytes, 14 tensors)

weight f4 [8, 3, 3, 3]
00000000: c1cf be3d f4aa 613d b3c3 b3bd 5428 273e
00000010: b18b edbd 245e 27bc ab49 35be a380 a63c
00000020: b17e 8d3d 275d 6bbe 2a53 503d 5c83 27bc
00000030: aabe c53d 5fcb aabd 2a11 2b3d 1a6c 07be
00000040: 78b3 9e3b 22b0 a5bd 8abf 24be f044 29bd
00000050: ee0a 14be c809 3bbd a9f0 17be 4128 9c3d
00000060: 6071 8ebe 0626 4bbe 0348 1fbe 71b2 b43d
00000070: d294 223d 21b3 a6bd 408d 4d3e 5e7d 85bd
00000080: 105a 733e 8757 333e 3e80 5b3d 6601 203e
00000090: f59c 9e3e 6575 533e f362 2b3e ece8 213d
000000a0: efa6 4b3e 319d a53d d853 883e 317c b13e
000000b0: 8ace 3a3e 64b7 a0bd 0526 923b 45d0 cc3d
000000c0: ad85 433c a165 6bbd a21a e9bd b890 09be
000000d0: e5aa 22be a900 da3c 73c9 673d 1037 9a3d
000000e0: dd0d 0d3e f690 293c cd84 103e 22ba 9dbd
000000f0: 6739 1e3d 6cf9 afbd 2bc9 343e 360b 85bd
00000100: 3dbd 7c3d d2f4 013d c78e 333e a3a4 e1bd
00000110: 9d13 5bbd 7df4 aabd 594d 5f3e 57cc 2b3e
00000120: efa1 193e b360 51be 2166 3abe e095 26be
00000130: 15b7 31be 10cf a73d 62ea ad3d f68b 393e
00000140: d403 a9bc a47e 96bc a94f 7c3e 770b 9f3d
00000150: 190b c73e 9cca 793d abca 173e 3c60 adbd
00000160: 565d ed3c c035 2e3e 5b2d c83c 2e44 b5bc
00000170: fcdf 0a3e bbc1 803e 3986 1dbe 7aad 48be
00000180: f975 873d d84f b5bd c9f1 d9bd 7b90 23be
00000190: 4023 44bd 2b8b dd3d ca99 083e 6007 f2bd
000001a0: 44bf 77bd bafa 3ebe a01e 10be 4140 a3bd
000001b0: 3413 68be 2cde 56be c046 333e f30b cc3d
000001c0: 0a80 933d d352 7cbe 6f07 17be 5e3d dfbd
000001d0: b69f 0bbe 2860 cfbd 22db 29bd 4b9a 3ebd
000001e0: e43f 2e3e bbcd 783d 8f0c 893b 96ac d3bc
000001f0: 8f61 80bd e542 42be 6138 89bc 5d57 18be
00000200: 3c98 673e 144c 1b3e 392c 913e 74de 2e3d
00000210: 1e0b dbbd 5c3b 173e 338f 2abe 6544 d0bd
00000220: 1b0c 6dbe b21b 69be 9024 5abd ca12 10be
00000230: c7ad 503c c21a 51be d07d 6b3d 0088 3bbe
00000240: fc7a 883d 1b91 b03d 13b3 293e 4902 ef3d
00000250: b576 073e 67de 1fbe d786 b53d c6a9 cbbd
00000260: 2dc7 bc3a 7c3a 57be 151d cf3d 9753 57be
00000270: 9ec3 8ebd 7c16 b2bd 2813 32bd cced 38be
00000280: 51c5 473d a41a 49bd ec37 dc3c 78de 0ebe
00000290: c5ad 953d 51c0 81be 850f 26be cb78 373e
000002a0: 7fd9 37bb 8211 2dbe 9b09 77be 104d d43c
000002b0: 6ce9 213e 2885 9c3a 60d0 96be f763 ddbd
000002c0: 7241 acbd 0c2e 953b 960f a13d 819b 8fbe
000002d0: 28eb af3d 2767 043e c39e 783d a60d 47be
000002e0: 615c 9c3d bb89 343e 2ba3 cc3d f807 76ba
000002f0: 715e 09bd b0d0 ab3d 7590 32bd 3666 3fbd
00000300: fe97 503e 4063 543e 2f09 c53c 5ed5 adbd
00000310: 0266 40bd 190b 81bc b3a8 083e 594b 663d
00000320: fb9e 3ebe 4502 133d d016 623e 1a88 d43d
00000330: 3750 febc 087e 1fbe 4144 02be 1ad2 debd
00000340: 1ca5 74bd 7e1f 5e3d 7e5e 453e 89d4 053e
00000350: 9a98 23be 212b 29be 8e03 b3bd fcc9 183e
0.0931697 0.055094674 -0.08777561 0.16323978 -0.1159891 -0.010215316 -0.17703883 0.02032501
0.0690893 -0.22984754 0.05086056 -0.01022419 0.09655507 -0.08339571 0.041764416 -0.13224831
0.0048431717 -0.08090235 -0.16088691 -0.04132551 -0.14457294 -0.045663625 -0.14837898 0.07624865
-0.27820873 -0.19838724 -0.15554814 0.088230975 0.039692707 -0.08139635 0.20073414 -0.065180525
0.23764825 0.17513858 0.0535891 0.15625533 0.30979124 0.20650251 0.16736965 0.039528772
0.19887899 0.080866225 0.26626468 0.34665063 0.18242851 -0.07847479 0.0044600987 0.10000662
0.011933726 -0.057469968 -0.11382033 -0.13434112 -0.15885504 0.026611643 0.0565886 0.075300336
0.1377482 0.010349503 0.1411316 -0.07701518 0.038628962 -0.08592495 0.17654864 -0.06496279
0.06170391 0.03172762 0.17534934 -0.1101773 -0.0534855 -0.08347414 0.2180685 0.16777168
0.15003179 -0.20447044 -0.18203022 -0.1626811 -0.17354997 0.08193791 0.084919706 0.18119797
-0.020631708 -0.018370934 0.24639763 0.077658586 0.38875654 0.06098424 0.14823405 -0.08465621
0.02897517 0.17012691 0.02443569 -0.022127237 0.13562006 0.25147805 -0.15383233 -0.19597426
0.066142984 -0.088531196 -0.1064182 -0.15973084 -0.04788518 0.1081756 0.13339916 -0.11817813
-0.06048514 -0.18650332 -0.14074183 -0.0797124 -0.22663575 -0.2098319 0.17507458 0.09963217
0.07202156 -0.2464097 -0.1474893 -0.10900377 -0.13635144 -0.10125762 -0.041468747 -0.046533864
0.1701656 0.060743075 0.0041824053 -0.025839131 -0.06268608 -0.1897083 -0.016750516 -0.14877076
0.22616667 0.1516574 0.28354052 0.042692617 -0.1069548 0.14768738 -0.16656189 -0.10169295
-0.23149149 -0.22764471 -0.053257525 -0.14069667 0.012736744 -0.20420364 0.05749303 -0.18313599
0.066640824 0.08621427 0.16572218 0.11670358 0.13228877 -0.15612184 0.08863609 -0.09944491
0.0014402621 -0.21018404 0.10112969 -0.2102798 -0.06970905 -0.08695695 -0.0434753 -0.18059462
0.04877216 -0.049097672 0.026882134 -0.13952053 0.073085345 -0.25342038 -0.16216858 0.17917173
-0.0028053222 -0.1690121 -0.24124758 0.025915653 0.158117 0.0011941539 -0.29455853 -0.108100824
-0.0841092 0.0045526084 0.07864301 -0.28048328 0.08589774 0.12929974 0.060698282 -0.194388
0.076348074 0.17630665 0.09992059 -0.0009385343 -0.033537332 0.08389413 -0.043594796 -0.046728335
0.2037048 0.20740986 0.02405223 -0.08487962 -0.046972282 -0.015752362 0.13345604 0.0562242
-0.18615334 0.035890836 0.22079015 0.10377522 -0.031044109 -0.15575421 -0.1272135 -0.108799174
-0.059727773 0.054229252 0.19274327 0.13069357 -0.15976182 -0.16520359 -0.087409124 0.14920801

bias f4 [8]
00000000: 3d95 82bd 61b6 0fbe 6c7c 5b3e 5901 c4bd
00000010: 0750 4ebe 6e35 493d 89b0 0b3d 1266 86bd
-0.06376121 -0.14034416 0.21434182 -0.095705695 -0.20147716 0.04912322 0.034103904 -0.06562437

weight f4 [8]
00000000: 4f84 6f3f e6c6 863f cb23 563f dca6 843f
00000010: da1f 853f c282 723f 4cd4 953f 7e3e 843f
0.9356126 1.0529449 0.83648366 1.0363421 1.0400345 0.9473077 1.1705413 1.0331571

bias f4 [8]
00000000: 602b 5ebd 5676 d5be 4db8 983d 10e7 d5bd
00000010: 68c7 5e3b d965 81bd b1e5 24be ee10 11be
-0.054240584 -0.41691846 0.074570276 -0.10444462 0.0033993367 -0.06318254 -0.16103245 -0.14166614

running_mean f4 [8]
00000000: 8b96 c5bd 1cd3 e0bd e1d9 4a3e 7a40 acbd
00000010: d3af 58be 9f8d 8a3c 342c 3d3a e6c9 62bd
-0.096478544 -0.10977766 0.19809677 -0.084107354 -0.21160822 0.016913233 0.00072163646 -0.055368327

running_var f4 [8]
00000000: 894c a43f a572 6f40 cfca 7b3e 7c90 a23e
00000010: e210 313f 1eb2 b43f 43f9 513f f780 583e
1.2835857 3.7413723 0.24589084 0.31750858 0.69166386 1.4116857 0.8202097 0.21142946

weight f4 [8, 16]
00000000: 6f0f c9bd e39d 8a3e 16cb 2c3e ae9c 143e
00000010: a404 63be 3329 c0bd 0f3d b5be 6c92 223e
00000020: 432c cb3e cae5 9e3d 5930 efbd 97a7 6b3d
00000030: ec5b b0bd 6908 0e3e 6e8c 7bbe d5af b5be
00000040: d577 a53d 1cb3 fdbd f17c 02bd 8004 cfbd
00000050: 1249 51bd debc 0abe c593 8e3d 5b53 fc3d
00000060: 8ffa 9cbe f41e bb3d 21b0 ccbd 97c7 c4be
00000070: a63c 5ebe 3a18 33be c04b b5bd 87cc dfbe
00000080: 7d54 55bd 0e06 96be ddd4 203e 4998 553e
00000090: 6fa3 463e 40b5 a7be 4288 cd3e 0020 ad3c
000000a0: 791c d63c 97b3 213e 6fa0 48bc 899b b23d
000000b0: 7b4d 0f3d 4fb1 3cbe 3d7c 783e 94f0 36ba
000000c0: 4553 433d 5364 163d 8ffa bd3d fc6e 63be
000000d0: 0924 9abe acd3 4fbc e61b 083b d0da b3be
000000e0: 73d7 4dbe 12b1 59be 0234 69bd 9b65 84bd
000000f0: 3672 6fbd bc66 23be c02e 60be 05e1 ca3d
00000100: 4b57 b43e 34de 9bbb 8f4a 11bc 1a59 c1bd
00000110: e15e 5fbe 0d91 43be 90d3 b93d 6ae7 7cbe
00000120: 254e 523d 9fa4 9abd 6c2a 32be 20a1 9fbd
00000130: daa0 27bc 93b8 1bbd e5b1 b6bd 92eb acbc
00000140: 8ef1 87bc 01dd 3c3f 8025 1e3e 7d43 eb3d
00000150: e2ea c83d 53f5 973e 7d88 1ebd 0f6e 503e
00000160: d465 c7bd 8ad3 53bd 6c6a b93d 7181 2bbe
00000170: 43cf cb3c d22f 703e 2487 94bd 5bd1 a4be
00000180: a5e1 cbbd 1269 1ebe 2710 823d 35b3 593e
00000190: 2f63 36be 2616 0ebe 17c6 80be 70dc f6be
000001a0: c9e3 8b3d 2658 7dbe 2584 aabd 7c37 023d
000001b0: 3018 83be 3d06 01be 406f cf3d 106a b93c
000001c0: d9f7 9e3c f28e 4a3e 64c1 9ebd 00cd 62bd
000001d0: 7b2f 72bd 724c 7aba 86a3 0b3d 6407 9ebe
000001e0: cfe8 eebd f812 153d a890 da3e 6222 07be
000001f0: 2dbe 5bbe 0d7d 4d3d bf0c bd3d 6f8d 73b9
-0.09817397 0.27073583 0.16874346 0.14512894 -0.22169739 -0.09382858 -0.35398147 0.15876168
0.39682207 0.077586725 -0.116791435 0.057532873 -0.08611283 0.13870396 -0.24565288 -0.35485712
0.08079497 -0.12387678 -0.031857435 -0.1010828 -0.051095076 -0.1354861 0.069617786 0.12320586
-0.3065991 0.09136763 -0.099945314 -0.38433525 -0.21702823 -0.1748971 -0.08852339 -0.4371073
-0.052082527 -0.29301494 0.15706201 0.20858873 0.19398282 -0.3275547 0.4014302 0.021133423
0.026136624 0.15791164 -0.012245282 0.08721072 0.034986 -0.18427013 0.24266143 -0.0006978598
0.047686834 0.03671677 0.09276306 -0.22210306 -0.30105618 -0.012684744 0.0020768582 -0.35127878
-0.20101719 -0.21258953 -0.056934364 -0.06464692 -0.05845853 -0.15957159 -0.21892834 0.099062
0.3522285 -0.0047567133 -0.008867874 -0.09440823 -0.21813537 -0.19098301 0.090735555 -0.24697652
0.051344056 -0.0755093 -0.17398995 -0.07794404 -0.010231221 -0.03801782 -0.089206494 -0.021108422
-0.016594674 0.73774725 0.15443993 0.11487482 0.09810425 0.29679355 -0.038704384 0.20354484
-0.09736219 -0.05171541 0.090535015 -0.16748597 0.024879104 0.23455742 -0.072523385 -0.32190976
-0.09955148 -0.15469769 0.06350737 0.21259768 -0.17811273 -0.13875636 -0.2515113 -0.48215055
0.06830556 -0.24740657 -0.08325986 0.031791195 -0.2560439 -0.12600036 0.10128641 0.022633582
0.019405292 0.19781092 -0.0775173 -0.055371284 -0.059127312 -0.00095481344 0.034091495 -0.30865014
-0.116654985 0.036395043 0.4268849 -0.1319671 -0.21459265 0.050168086 0.09230947 -0.00023226974

bias f4 [8]
00000000: 7495 363e 2512 383e 9e1a 4ebe acde 153d
00000010: a7f1 d53d 0be4 883b e335 21be f7f1 5a3e
0.1783045 0.17975672 -0.20127341 0.03658931 0.10446482 0.0041775755 -0.15743212 0.21381365

weight f4 [8]
00000000: 68cb 673f 4cd8 5f3f b61d 843f 2ef5 c13f
00000010: c92e 713f 3d64 f43f f77b 803f 483d 413f
0.9054475 0.8743942 1.0321567 1.5152948 0.94212013 1.909309 1.0037831 0.7548413

bias f4 [8]
00000000: 93d6 263c 0deb d4bd 38f0 853d 7662 553f
00000010: 4832 29bd fe0a 883f 4946 7c3c d5e1 82be
0.010182994 -0.10396395 0.06539959 0.83353364 -0.041307718 1.0628355 0.015397617 -0.2556292

running_mean f4 [8]
00000000: 2a8a 9f3b 44d4 3ebf dbd8 2e3f d729 00c0
00000010: 595f 68bf d0fa 1440 5a10 16c0 3ce7 0cbf
0.0048687654 -0.7454264 0.68299645 -2.0025537 -0.9077049 2.3278084 -2.344748 -0.55040336

running_var f4 [8]
00000000: ba5f 8e3e 210f ea3d 6543 643e 91ba 2e3f
00000010: 9882 a73e 2607 653f 169a 3f3f 1e53 303e
0.2780741 0.11428667 0.22291334 0.6825343 0.32716823 0.8946403 0.7484449 0.17219207

weight f4 [3, 8]
00000000: facb b43d 261d 583d 9ee6 24be bb4d 9c3e
00000010: f7ce c23e 3e59 ae3e 4915 af3e ce1c 143c
00000020: b99a 94bd 896b 393e 49f3 263f b08c c13e
00000030: f4f6 963c 710f 043e 186f 88bd fbd5 16bd
00000040: e557 aebe 219f ffbd c252 0dbe 01e5 80bf
00000050: 3c6b 01be 95eb 91bf 6e7c 64be 4bdd a73c
0.08827968 0.052762173 -0.16103598 0.30528054 0.38048527 0.3405246 0.34195927 0.009040071
-0.072560735 0.18107428 0.65214974 0.3780265 0.018428303 0.12896515 -0.066618145 -0.03682516
-0.34051433 -0.12481523 -0.13801101 -1.0069886 -0.12638563 -1.1400019 -0.22313091 0.020491263

bias f4 [3]
00000000: 17a2 aa3e 9425 383f a67f 55bf
0.3332679 0.7193234 -0.833979
