old/FCNN/fcnn_model.pth (torch, 8995 bytes, 8 tensors)

weight f4 [32, 20]
00000000: aff9 9fbe 4534 363f b106 1ebf 0a93 283c
00000010: 9c0f c1be ec61 cb3e 903e 0c3f 46ec c9be
00000020: 4c8f 9b40 2097 eabf d736 e73d 6783 5a3f
00000030: b6d6 b83e 56cd c2bf e0a7 46bf 564b ed3f
00000040: be5f 303e 0d31 b03e 577a f9be 9d63 c43f
00000050: 22b3 9dbe 5788 3abe a32e 2ebe 325c 673e
00000060: 1262 9cbf a934 af3f 23d4 32bd da6d 83be
00000070: dae9 2540 2412 02c0 8087 c73e baaa dd3e
00000080: 1367 ddbe 42de 80bf a2fc 39bf 844f 8a3f
00000090: 551b f4bd 52ad 073f 2b15 04bf 4253 0abd
000000a0: 1639 b53e 9897 2cbf 90a1 febd d60f 333f
000000b0: 0362 de3e ab2f cabe 69fc 353b 7070 63be
000000c0: 3009 103f 6a89 bbbe 9f94 dbbe 7342 f43a
000000d0: fa0d 953e 5f5c 93bd 58f5 433d c4f8 2fbf
000000e0: 87e4 05be 7171 543e 64c2 283e 5fda 2a3e
000000f0: f2ca cb3e 38d7 0abf 31d5 6e3e 5030 e33e
00000100: ebf6 f1bd 67b8 8d3e d2b9 753f 67a1 ffbe
00000110: 153d bf3e 36fb 00bf 78ab b3bd b2b7 7cbe
00000120: f1d1 173f a3a4 093e cb40 0c3e 24d2 06bf
00000130: 30e1 393d 6385 31be 4cb4 fe3e dcec 0ebe
00000140: a579 123f 24a9 23bd a75f f33e b47a d03c
00000150: 30e4 af3c c8a9 233e 6174 4f3e 2eca cf3e
00000160: 87fe 43bf b0d4 933d ebdd 8cbc 2eb3 f73d
00000170: b4d7 60bd abe4 e13e 0026 b8be 7d2a 6a3e
00000180: d493 ae3f 730e a2bf 2573 63bf 0dc0 0abf
00000190: 50c5 81be 985b 87bc a5ea 17bf 134b f43e
000001a0: a00c ca3e f974 9dbe aba1 a7be 34e6 0cbf
000001b0: aae1 673e 75be 823e 503d 8cbe b5aa 1cbf
000001c0: 5dc1 adbe b416 0e3e ee87 dd3c 32fb 133f
000001d0: 82fb 09bf bf76 873e 5319 853e e3ba e8be
000001e0: 8cee bf3e 928f 8e3b 2582 ce3e ec2d debe
000001f0: f366 cdbd 43c6 17bf bf6c b33e d93e abbe
00000200: 18ac 5f3e f6ae 0a3e 77f8 c83e 0208 c13e
00000210: 4259 fabe 31df 62be c4cd 023f 69e6 ef3e
00000220: de8f 3b3e 5269 70be 1ea0 81be d7e2 14bf
00000230: 3c79 063f 8782 97be 4e5a af3e af35 e33e
00000240: d508 3bbe e9de bfbe 3684 dc3e d7dd 223f
00000250: 9839 4f3f 3ca9 b63e c049 4cbe 7772 79be
00000260: f8a2 e0be a6dc 133d 46ee b03e b33e 953d
00000270: 3356 ea3d 2f60 313e 1699 3abd ae62 e4be
00000280: 6e49 f23e 4d6c 3e3e b32f 2abe 74e6 ff3e
00000290: 8451 98be 3930 4bbe 3a86 87be db45 343f
000002a0: 185d 5540 b657 44bf 4f7b dc3e 0b67 a73d
000002b0: a2a1 e3bd f04f a1bf 2340 56bf 17a4 8c3e
000002c0: a579 a2be 2f8a e03e ecfe 26be f7ab 18bd
000002d0: f7ee 593e 318b d6be 92f9 553e e5e7 f3be
000002e0: 0b70 e2be f350 633f 8a33 b6bd 1da6 3b3d
000002f0: 0add f2bd 4a20 ddbe af34 0dbf 43fb 743e
00000300: ae7e 083f 0384 3c3f 7bad 96be c9c8 863d
00000310: d512 983e 82bf 88be 7a51 babd 7eb6 13bd
00000320: 558b 06bf 7826 72be 7e4e 113f 8eb2 b4be
00000330: 45b8 433e e9a1 d4be 9d83 b5be 1be6 e8be
00000340: bbb9 d7be 22c9 be3e 5b7a bb3c 1917 103f
00000350: 0af4 02bf a076 9ebe bb17 b33e 59f7 063f
00000360: f2ea c83e 228c d1be f477 97be f564 323d
00000370: d657 873f acdf d8be c9e8 073f ee9a 85be
00000380: 7e40 9a3d 9e62 ac3f 1970 123f 4a2c 523d
00000390: 8c5a ecbd 3881 58bf 02ed b83e a971 9f3f
000003a0: b7ed 01bf 2d4d bebd f19a ed3d 1aee 11be
000003b0: e808 3d3f 4da6 26bf 6960 37bf c128 b3bf
000003c0: 0fe0 2bbf 1ad3 e8be d526 ad3d 80ef cfbe
000003d0: e3e3 403e 2b86 b8be 6871 cfbe 98ae 4abc
000003e0: 53e4 ba3f c085 68be 4104 c8be 7940 49bd
000003f0: 4ce5 8fbe 90ba 143b 83ad d03e 1ae0 673f
-0.3124518 0.71173507 -0.6172896 0.010288963 -0.37707222 0.39723146 0.5478296 -0.39438075
4.8612423 -1.832737 0.11289757 0.85356754 0.3610131 -1.5218914 -0.77599907 1.8538616
0.17224023 0.34412423 -0.4872615 1.53429 -0.3080073 -0.18216072 -0.17009978 0.22593763
-1.2217429 1.3687946 -0.04365934 -0.25669748 2.5923982 -2.0323572 0.38970566 0.43294317
-0.43242702 -1.0067828 -0.7265111 1.0805516 -0.11919276 0.5299884 -0.515948 -0.033770807
0.35395116 -0.67418814 -0.12433159 0.6994604 0.43434152 -0.39489493 0.0027768856 -0.2221086
0.5626402 -0.36628276 -0.42886826 0.0018635526 0.29112226 -0.07195353 0.0478414 -0.6873896
-0.13075458 0.207464 0.16480404 0.16684864 0.39803272 -0.5423465 0.23323514 0.44372797
-0.11814674 0.2767975 0.95986664 -0.49927828 0.3735129 -0.5038332 -0.087729394 -0.24679449
0.5930472 0.1344171 0.13696592 -0.526644 0.04538077 -0.17336039 0.4974693 -0.13957542
0.57216865 -0.039956227 0.47533914 0.025449134 0.021471113 0.15982735 0.20259239 0.40583938
-0.7656025 0.07218301 -0.017195662 0.12094723 -0.05489321 0.44119772 -0.35966492 0.2286777
1.3638864 -1.266066 -0.8884757 -0.54199296 -0.2534585 -0.016523167 -0.59342414 0.47713527
0.39462757 -0.30753306 -0.3274053 -0.5503876 0.22644678 0.25535932 -0.27390528 -0.6119798
-0.33936587 0.13875848 0.027042355 0.5780517 -0.53899395 0.26457784 0.25995883 -0.45455083
0.37486684 0.004350611 0.40333667 -0.4339441 -0.10029402 -0.592869 0.35043904 -0.33446386
0.21842992 0.13543305 0.39252064 0.37701422 -0.48896223 -0.22155453 0.51095223 0.46855476
0.183166 -0.23477677 -0.25317472 -0.5815863 0.5252874 -0.29591772 0.34248585 0.44376895
-0.18265088 -0.37474754 0.4306962 0.6361975 0.80947256 0.3567599 -0.19950008 -0.24360071
-0.43874335 0.0360991 0.34556788 0.072873496 0.114422224 0.17321847 -0.04555615 -0.44606537
0.47321647 0.18596001 -0.16619758 0.4998051 -0.2974969 -0.19842614 -0.26469594 0.7041909
3.333807 -0.76696336 0.43062827 0.08173951 -0.111148134 -1.260252 -0.83691615 0.2746894
-0.31733432 0.43855426 -0.16308182 -0.037273373 0.21282564 -0.4190307 0.20895985 -0.4763786
-0.44226107 0.88795394 -0.08896549 0.045812715 -0.11858566 -0.43188697 -0.55158514 0.23923974
0.533183 0.73638934 -0.2942923 0.065812655 0.29701868 -0.2670861 -0.09097572 -0.03606271
-0.52556354 -0.23647487 0.56760395 -0.35292476 0.19113262 -0.41529778 -0.35451975 -0.45488057
-0.4213389 0.37262827 0.022885492 0.56285244 -0.51153624 -0.3094988 0.34979042 0.5272117
0.3924175 -0.40927225 -0.29583704 0.04355331 1.057368 -0.42358148 0.53089577 -0.26094764
0.07531832 1.3467596 0.572023 0.05131177 -0.11540708 -0.8457217 0.36118323 1.2456561
-0.5075335 -0.09292064 0.11601818 -0.14250985 0.73841715 -0.65097505 -0.71631485 -1.3996812
-0.6713876 -0.45473558 0.08454672 -0.40612411 0.18836932 -0.36039862 -0.4051621 -0.012370728
1.4600929 -0.22707272 -0.39065745 -0.04913375 -0.28104627 0.0022694208 0.4075738 0.90576327

bias f4 [32]
00000000: f8d9 5e3e ee16 31bd 2008 293d 7844 5bbc
00000010: e6b6 8e3c f227 38be bcf4 333e 0238 93bc
00000020: 23e1 7dbd 4b0c cbbd 74fe 703e 3f88 32be
00000030: dfc0 4a3e 7222 ddbc 2e54 833e 9231 40bc
00000040: bb95 d83d 9c4e 2abe 8f81 80bc c903 b13e
00000050: 3586 54be ac35 c93d b9fd 90be fb4c 5f3e
00000060: bb0d 443e 13df 683e ffeb 25be b828 32be
00000070: 2657 963e a28a 90bd e220 3b3e 46af 6cbe
0.21762836 -0.043234758 0.041267514 -0.013383023 0.017421197 -0.17983988 0.17573828 -0.017971043
-0.061982285 -0.09914454 0.23534566 -0.17434786 0.19800137 -0.026993964 0.25650162 -0.0117305685
0.10575434 -0.1663155 -0.015686778 0.345732 -0.20754321 0.0982469 -0.28318575 0.2180671
0.19145863 0.22741346 -0.16203307 -0.17398345 0.29363364 -0.07057692 0.18274263 -0.23113737

weight f4 [32]
00000000: 54de 9c3f 207a 0b3f 7e0e 443d eb02 133e
00000010: 6601 37bd 2447 993e d1e6 273e f260 6a3e
00000020: 687d 593f 77b4 a3bb 85d3 383e 4648 7bbd
00000030: b79c 4a3e 2ab7 73bd fa68 893e 2bab ec3d
00000040: 56b5 b63d 2474 40be df82 583f 9aa2 9b3f
00000050: 67d6 b63e 0004 4a3c 1cab b0bd 6ce9 a63d
00000060: 7dfe 843e 10ef 97bb c242 2d3e 28ac 363f
00000070: 49c0 0a3e dcad 0f3e b1b6 9e3e e41d 253e
1.2255349 0.5448322 0.047865383 0.14356582 -0.044679068 0.29937088 0.16396643 0.22888544
0.8495698 -0.0049958783 0.18049438 -0.061348222 0.19786344 -0.05950085 0.26837903 0.11556085
0.08921306 -0.18794304 0.84574693 1.2158997 0.3571045 0.012330055 -0.086263865 0.081499904
0.2597541 -0.004636653 0.16919997 0.7135644 0.13549913 0.14031166 0.30998757 0.16124684

bias f4 [32]
00000000: 1728 2cbe 2300 a83d 0beb 5fbf 40af 40bf
00000010: 5e1c 74bf 4267 25bf c7a4 26bf 16cf 5dbf
00000020: 179a 18bf 6cb9 35bf 5db5 36bf e742 49bf
00000030: c174 96bf 84d1 60bf dd01 68bf 3c67 54bf
00000040: e2f8 80bf 44e9 b6bf 6fa4 f8be a865 f3be
00000050: bb03 21bf 43b9 3ebf 74fa b4be 7e15 d3be
00000060: 1585 a4bf df2a b8be a1e1 2abf a96b e6bd
00000070: 806f 17bf 7ada 48bf 5234 28bf 1966 40bf
-0.16812168 0.08203151 -0.8746802 -0.7526741 -0.95355785 -0.64610684 -0.6509518 -0.86644113
-0.5961012 -0.70986056 -0.7137049 -0.7861771 -1.175438 -0.87819695 -0.90627843 -0.82970023
-1.0075953 -1.4289937 -0.48562953 -0.47538495 -0.6289632 -0.74501437 -0.3534733 -0.41227335
-1.2853113 -0.35970208 -0.6675053 -0.11251003 -0.5915451 -0.7845837 -0.65704834 -0.7515579

running_mean f4 [32]
00000000: 9c18 f83f b29d 1e40 6141 b940 038f 5840
00000010: dd9a 933e 0b00 4d40 b8e4 49c0 ae12 8b40
00000020: c58d c040 5144 97c0 b4be 35c0 e725 cdbf
00000030: 0ecb 32c0 2092 94bf 9c4d e9bf 4ea0 a240
00000040: 12ad 54c0 02bb 703f 7158 7440 f2b0 9d40
00000050: 52b7 9240 40bd b040 f3b2 9b40 4ec8 e4bf
00000060: ee12 4440 0e90 2940 80e1 8e40 ef69 da3f
00000070: c079 86c0 af13 9340 b844 5940 78b2 b4c0
1.938251 2.478375 5.789231 3.3837287 0.2882909 3.2031276 -3.154585 4.34603
6.017306 -4.7270894 -2.8397646 -1.6027192 -2.7936435 -1.1607094 -1.822681 5.0820684
-3.3230634 0.9403535 3.817898 4.92785 4.584878 5.523102 4.8655944 -1.7873628
3.0636554 2.6494174 4.465027 1.7063578 -4.202362 4.596153 3.3948193 -5.6467857

running_var f4 [32]
00000000: cb7d e340 de9a b840 e25e 4041 9ad8 8a40
00000010: afd6 7540 beb5 1441 b988 c640 0621 9c40
00000020: 5018 7241 220b e940 fc9d b840 73b2 0341
00000030: a82b 6140 7b98 4440 2aa4 5340 a8cf 0f41
00000040: bc93 dd40 c1d3 9340 0bae 4c41 3ab3 1941
00000050: f5e7 1341 30d8 3a41 e8df 4441 a5bf 4740
00000060: 71dd 0f41 3a76 9840 ecb7 bf40 9ad0 9140
00000070: c75a 0641 fdef 1c41 7f11 0c41 c0fe 4a41
7.1091056 5.7689047 12.023165 4.3389406 3.8412282 9.294371 6.20419 4.879031
15.130936 7.282609 5.769285 8.231067 3.5182896 3.0718067 3.3068948 8.988197
6.924284 4.619599 12.792491 9.6062565 9.24413 11.67778 12.304665 3.121072
8.991563 4.764432 5.9912014 4.556714 8.397162 9.808591 8.7542715 12.687195

weight f4 [3, 32]
00000000: 51b9 193f 6a55 1c3e 5bf3 143e 5460 df3d
00000010: 3879 143d a597 383e d1ee 90bc 04fc ee3c
00000020: 33f6 8a3e 00df 7c3e 220f 713e 6b87 11be
00000030: c19e 30bd 50d3 2c3e 1015 a03d 2444 18bc
00000040: 7139 60be 77d9 dbbe 9885 943d 3f88 c33e
00000050: 28e2 9bbd d5a8 c33d b2a0 7abc 7ff5 953d
00000060: 6e55 6bbe df98 7bbd 1a23 243e 7ea2 b23e
00000070: eae8 0d3e c62c ce3d c469 953d 5d91 bf3d
00000080: 51fd 8cbe ea6e 88bd c5ec 00bd 29f7 053f
00000090: 6729 b43e 1732 0a3d c3cd 53bd 2d92 2d3e
000000a0: b815 353e 6645 e7bd da0b 03be abd4 d73e
000000b0: f421 11be 18cd 143e c0cb 2c3e d3df db3e
000000c0: 8d3d c0bc 191b d23e 1295 8c3c 9d36 823c
000000d0: 4104 343d fa68 a23e e34a 0c3e 82c0 d63d
000000e0: 6027 063f c0da 62bb 90a9 eabd 2aa3 02be
000000f0: d5d9 5bbd 637d af3d 38c5 163d 9963 913c
00000100: 1188 3dbf 50ae 46bf 8fb9 edbe 1617 6bbe
00000110: a2f9 71be 1361 6dbe bc13 6ebb b582 e8bd
00000120: 9804 29bf 1893 01be 337a 403e 2044 c0be
00000130: 9640 813d 6df8 bbbc 5b70 a9be ea14 c0be
00000140: 4a67 0fbe 5d29 323c 7e19 653d c933 0abf
00000150: 8651 f6bd 8b60 9ebe f769 a9be 00e7 6d3c
00000160: aa1f 85bf 0471 1f3e cd7e 96be 362c 45bf
00000170: a6b0 3abe d4ce 07bf 1bb9 2e3d 01c4 a2bd
0.60048395 0.15266958 0.14545958 0.10907045 0.036248416 0.18026598 -0.017692002 0.029172905
0.2714096 0.24694443 0.23540929 -0.14211814 -0.04312015 0.16877484 0.07816517 -0.00929359
-0.21896912 -0.4293935 0.072520435 0.38189885 -0.07611495 0.095536865 -0.015297102 0.07322215
-0.22981808 -0.061425086 0.16029015 0.34889597 0.13858381 0.100671336 0.07295564 0.09353898
-0.27537015 -0.0666178 -0.0314758 0.5233026 0.35187837 0.033739176 -0.0517099 0.16950293
0.17684066 -0.112925336 -0.1279749 0.4215444 -0.14173108 0.14531362 0.168746 0.42944202
-0.02346685 0.410363 0.017160926 0.015895182 0.04394937 0.31720716 0.13700442 0.10485937
0.5240383 -0.0034615248 -0.11458123 -0.12757555 -0.053674538 0.085688375 0.036809176 0.017747687
-0.74035746 -0.7760973 -0.46430632 -0.22958025 -0.23630384 -0.23181562 -0.003632768 -0.113530554
-0.66022635 -0.12653768 0.18796615 -0.37551975 0.06311147 -0.022945607 -0.33093533 -0.37515956
-0.14004245 0.01087412 0.055932514 -0.5398527 -0.12027268 -0.3093303 -0.33088657 0.014520407
-1.0400288 0.15570456 -0.29393616 -0.77020586 -0.18231449 -0.5304997 0.042657 -0.07947541

bias f4 [3]
00000000: b3e9 523f caae dabd 6b0f b4bf
0.82387847 -0.106778696 -1.4067205
