3_DB_1/db_1_model.pth (torch, 17506 bytes, 20 tensors)

weight f4 [8, 3, 3, 3]
000000 1e 79 4d 3e d5 2d 56 3d 71 34 8f 3b e7 15 18 3e
       0.20065734 0.052289803 0.004370265 0.14852105
000010 d9 87 8d bb 08 e3 f2 bb f6 34 26 bd 96 2d dd 3d
       -0.004319173 -0.007412318 -0.04057785 0.107997105
000020 94 f7 01 3e 20 54 e8 3d cb bd 6b 3e 5c 2c 51 3e
       0.126921 0.113441706 0.23021619 0.20427078
000030 64 3c 88 3e f3 7a 4d 3e 0f 10 5c 3e 82 0a ea 3d
       0.26608574 0.20066433 0.21490501 0.114277855
000040 2f 8d 88 3e bd d2 f8 3d 11 33 ef bd 41 3d a7 bc
       0.26670215 0.1214957 -0.11679662 -0.02041495
000050 ea 96 6e bd d9 0a a3 bd c0 62 ac bd 66 93 a9 3d
       -0.05824939 -0.079610534 -0.084172726 0.08280067
000060 e9 0c 1b be 0f 16 eb bd 46 a0 bc bd c8 4c df bd
       -0.15141644 -0.11478817 -0.09210257 -0.10903317
000070 bd 50 e7 3c da d6 39 be cd c7 4c 3e ea 32 01 be
       0.028236741 -0.18148366 0.19998093 -0.12617078
000080 20 bf 2e 3e 50 1e 9e 3d 5d 6b 45 bc ff 93 33 3e
       0.17065096 0.077206254 -0.012049523 0.17536925
000090 56 4c f1 3c dd 4f 31 3e 21 7f 1e 3d a8 51 3d bd
       0.029455345 0.17315622 0.03869546 -0.04622045
0000a0 8f e3 b7 3d 91 1f 06 bd e4 6f e6 3d f0 31 5e 3e
       0.0897895 -0.032744948 0.1125181 0.21698737
0000b0 33 21 28 3e 06 a4 83 bd 4c 8e 26 3e e3 ae 92 3d
       0.16418914 -0.06427769 0.1626522 0.07162263
0000c0 06 04 f6 3d f1 e6 8c bd ea 5d 2c be dc 06 34 bd
       0.12012486 -0.06879986 -0.168327 -0.043951854
0000d0 84 07 cf bd 5e 71 4c 3e 14 71 06 3e a8 95 1c 3e
       -0.10108855 0.19965121 0.13129073 0.15291464
0000e0 5d 39 18 3e b1 0c 91 3d 69 69 63 3e 2b d8 6b bd
       0.14865632 0.07082499 0.2220818 -0.0575792
0000f0 e7 97 be 3d d5 b0 75 bd b5 a0 9f 3d 1a b6 ac 3b
       0.09306317 -0.059983093 0.07794324 0.0052707316
000100 e3 38 01 3e 91 9e 36 3d 42 a6 69 3e ed 1b 4a bd
       0.12619357 0.044584814 0.22817329 -0.04934304
000110 52 19 36 bd 4e 38 23 bd ec b1 6f 3e ff 7d 79 3d
       -0.04445774 -0.03984862 0.23407716 0.060911175
000120 8d 0f 69 3e 31 a6 d8 bd 15 15 d6 bd 6e 4a cb bd
       0.22759838 -0.105785735 -0.1045324 -0.09926306
000130 32 5f a0 bd 07 44 10 3e 95 ec 00 3e 6e b5 40 3e
       -0.07830657 0.1408845 0.12590249 0.1881921
000140 f7 17 f8 bd a4 13 28 be 99 c4 04 3b 42 a0 45 be
       -0.12113946 -0.16413742 0.0020258783 -0.19299415
000150 77 df 44 bb 3c ee 05 be 74 81 ee bb 06 49 90 be
       -0.0030040422 -0.1307916 -0.0072786156 -0.28180712
000160 89 6a 35 be b6 2f 19 bd 56 e3 42 3d f8 2f a9 bd
       -0.17716421 -0.037399016 0.047580086 -0.082611024
000170 cc 12 2c 3d d1 69 36 3d 7a 00 19 be a8 da 22 be
       0.042010114 0.04453451 -0.14941588 -0.15903723
000180 33 3f cc 3d c9 09 a2 bd bf b5 83 bd d6 c9 0e be
       0.09972992 -0.079120226 -0.0643115 -0.13944182
000190 fc 25 25 be 3e 00 30 bd 82 84 e5 bd 73 d5 13 be
       -0.16127771 -0.04296898 -0.112069145 -0.14436893
0001a0 6e cc 96 bd 2c 54 56 be c4 8f 1a be a9 ed 0d be
       -0.073632106 -0.20930547 -0.15093905 -0.13860191
0001b0 40 e5 b8 be 30 27 8e be a9 bf d7 3d e1 f2 d2 bd
       -0.36112404 -0.27764273 0.10534603 -0.10300232
0001c0 af 48 3c bd c5 68 3a be 32 13 a1 be 5d 00 59 be
       -0.045967754 -0.18204029 -0.31459957 -0.21191545
0001d0 86 71 48 3d cc 3c 0f be 0e 17 83 bd 7d 6d 2c be
       0.04893639 -0.13988036 -0.06400882 -0.16838641
0001e0 9f b5 eb 3b 26 c2 8b bd 9d 05 88 3d bc 30 af bd
       0.007193282 -0.0682414 0.06641696 -0.08554217
0001f0 42 95 e4 bd 1b 05 62 3c 58 94 92 bd 95 d6 38 be
       -0.11161281 0.013795163 -0.071572006 -0.18050607
000200 21 23 a6 3d 5c 24 65 bd c9 12 12 3e f8 5d b4 3d
       0.08112169 -0.055942878 0.14264978 0.088069856
000210 67 db 36 be 44 88 e8 3d 2b 31 df bc 53 55 33 be
       -0.17857133 0.113541156 -0.027245125 -0.17513017
000220 4c b2 82 be 9b b8 64 be 0d c8 a6 bc 66 f3 04 be
       -0.25526655 -0.22336046 -0.020359064 -0.12983474
000230 44 f8 42 3d 70 54 37 be 2d d5 eb 3d 77 b3 05 be
       0.047600046 -0.17903304 0.115152694 -0.13056742
000240 ba 89 84 3c f2 f8 5d 3d fc 00 2d 3e 26 17 3d 3e
       0.016178954 0.05419249 0.16894907 0.18465862
000250 1c af 23 3e 44 97 cb bd a1 2d d2 3d 7e a2 06 bd
       0.15984768 -0.09940961 0.10262609 -0.03286981
000260 5b 64 30 3d fe a0 fd bd 78 45 37 3e 88 43 b4 bd
       0.043064456 -0.123842224 0.17897594 -0.08801943
000270 6a e1 fb 3d 10 44 15 3b 76 7a e7 3d 7f b6 4c bd
       0.12298854 0.0022776164 0.113026544 -0.04997873
000280 37 3d 62 3e 7c 90 d9 3d 2f 5e 42 3d 71 f8 3b be
       0.22093664 0.10623261 0.0474531 -0.18356492
000290 b0 46 33 3d 6f 62 23 bd 54 cd 7f bd 78 91 0b 3e
       0.043768585 -0.039888795 -0.062451676 0.1362971
0002a0 40 fa b0 3d 69 ac 76 bd 19 26 3d be a3 46 22 3d
       0.086414814 -0.060223017 -0.18471564 0.039618146
0002b0 b9 18 ff 3d 86 e9 52 bc 67 5c d3 bd 65 cf 9f bc
       0.12455887 -0.012873059 -0.10320359 -0.019508073
0002c0 83 a5 ec bd 34 e6 da 3d 7f e6 45 3e 1c 73 74 be
       -0.11555006 0.10688439 0.19326209 -0.23872036
0002d0 c9 6f 3c 3d 1a 32 94 3d 2d 17 ac 3c 1e 04 d1 bd
       0.046005044 0.072361186 0.021007145 -0.102058634
0002e0 d8 13 fa 3d 26 03 d7 3d 2e 5a dd 3d 81 83 06 3c
       0.12210816 0.104986474 0.10808216 0.008210064
0002f0 9c 79 c7 bd 5c c1 cc bc 23 85 87 bd 0c 59 cc bd
       -0.09739992 -0.024994545 -0.06617191 -0.09977922
000300 47 97 a7 3d ab 7a 15 3e 0e e1 95 bd 4d 52 42 bd
       0.08183151 0.14597575 -0.073183164 -0.04744177
000310 79 65 20 bd 98 5e 76 bd fe 4b cc bb c3 5b 0f 3c
       -0.039159272 -0.060148805 -0.006234645 0.008749905
000320 01 c0 68 be 9d 31 f7 bd 07 2f fe 3d 63 4a 51 3c
       -0.22729494 -0.1207001 0.124113135 0.012774083
000330 a3 bc 8d bd d2 8b 31 be 50 b6 31 be 64 5b 5e be
       -0.06920745 -0.17338493 -0.17354703 -0.2171455
000340 16 5a d1 bd 23 ab 89 3c 84 a8 a2 3d 21 da 60 3d
       -0.10222261 0.016805237 0.07942298 0.054895524
000350 4b a2 65 be 33 1f 26 be 4e 74 a1 bd 0d ed 0a 3e
       -0.22425191 -0.16222839 -0.078835115 0.1356699

bias f4 [8]
000000 f9 61 ca 3d d3 c5 ae 3c 82 d5 8a 3d 4b 4d 81 bd
       0.09881968 0.021334564 0.06779005 -0.063135706
000010 bd 28 61 bd 2e 4d 79 3d b6 e3 af bd 53 2e 09 bb
       -0.05497049 0.06086462 -0.08588354 -0.0020932152

weight f4 [8]
000000 20 3a 83 3f e8 7c 7b 3f 15 2a 61 3f aa d1 68 3f
       1.0252113 0.98237467 0.8795484 0.9094492
000010 60 91 64 3f f5 41 6d 3f 9e 26 8a 3f 15 86 72 3f
       0.89284325 0.9267877 1.0793035 0.9473584

bias f4 [8]
000000 68 38 9a be 15 ce 71 3e b1 da 17 bd e4 09 58 bd
       -0.3012116 0.2361377 -0.037073795 -0.052743807
000010 90 8d c0 3c 5d 42 91 be 75 59 b0 bd b2 20 7a bd
       0.023505002 -0.28370944 -0.086108126 -0.061066337

running_mean f4 [8]
000000 89 92 c2 3d 95 4c ce 3c 01 5c 87 3d c7 e7 8f bd
       0.095006056 0.025183002 0.06609345 -0.0702663
000010 fb 53 be bd b1 a1 92 3d 37 97 ca bd de 65 e4 bc
       -0.09293362 0.071597464 -0.09892123 -0.027880605

running_var f4 [8]
000000 bf cc 0d 40 58 1f 88 3f 0e e4 02 40 c9 42 a9 40
       2.2156217 1.0634565 2.0451694 5.2894025
000010 44 0c 59 40 fe 30 a8 3e 0d d9 ef 3c bb 19 d1 3f
       3.3913736 0.32849878 0.029278303 1.6335977

weight f4 [16, 20]
000000 a6 f6 a9 be 02 09 c6 3d 77 dc 8b 3e 67 c1 fd bc
       -0.3319599 0.09669687 0.2731664 -0.03097601
000010 d8 3a b4 bd d9 60 0d be fc f1 d9 bd e4 28 fc 3d
       -0.08800286 -0.13806476 -0.10641858 0.12312487
000020 05 ce 79 bd e1 32 be 3e 56 00 5e 3e 1e 2e e9 3d
       -0.06098749 0.37148193 0.21679816 0.11385749
000030 23 ff 8e bd b1 ae 8d be 54 e7 51 bd 2f c3 89 be
       -0.06982257 -0.2767234 -0.051246002 -0.26906726
000040 ca 8d 51 3e 1a 27 69 be 9d a0 09 be 9c 52 4e bd
       0.20464244 -0.22768822 -0.13440175 -0.05037175
000050 d7 0e 67 bd cb eb 1b bd 5e df 63 be ce 3b 9b 3d
       -0.056410637 -0.038066667 -0.22253177 0.07579766
000060 e1 f9 e7 bd a3 f0 1c 3e 60 47 30 be f7 86 27 be
       -0.113269575 0.1532617 -0.17214727 -0.16360079
000070 00 81 87 3e 60 96 79 be d9 bf 09 3c c0 f4 d6 bd
       0.26465607 -0.2437377 0.008407556 -0.10495901
000080 95 97 2f 3e b9 47 45 be 07 c7 33 be 20 9d 85 3d
       0.17147668 -0.19265641 -0.17556392 0.0652411
000090 40 ca ea 3d fc 3b 29 be 5c c6 5a 3e b2 aa f1 3d
       0.114643574 -0.16526788 0.2136473 0.11800136
0000a0 cb 2a e0 3d 14 21 45 3e ee ff f4 3c 4c 80 35 3d
       0.10945662 0.192509 0.029907193 0.044311807
0000b0 c9 88 ea bb 90 14 38 be a3 1d 64 3e bd 50 76 be
       -0.0071574193 -0.17976594 0.2227693 -0.24054237
0000c0 b5 44 e7 bd 08 5c a9 3e ff d5 18 3e cc 3c c8 bd
       -0.11292402 0.33078027 0.14925383 -0.09777221
0000d0 b6 a0 10 be 94 a8 d4 bc 51 86 b0 3e ef ff 98 be
       -0.14123806 -0.02595929 0.34477475 -0.29882762
0000e0 4d 15 28 bd ae 5d 51 bd 1f f2 22 be f8 13 13 be
       -0.04103594 -0.05111473 -0.15912674 -0.14363086
0000f0 55 3b dd bd e2 bf 6e bb ef 20 62 be 13 c0 40 3e
       -0.10802332 -0.003643029 -0.22082876 0.1882327
000100 ca 12 a2 bc f1 4f a6 3c 57 84 ec bc 0e f2 82 bd
       -0.01978435 0.02030179 -0.028871698 -0.063938245
000110 75 16 54 3e 78 45 d6 be 4e 32 be 3c 37 51 1d 3e
       0.20711692 -0.41849875 0.023217347 0.15363012
000120 30 dc 97 bd 9e 2f bf bd 17 39 d5 be 70 eb 8b 3d
       -0.07415044 -0.09335254 -0.4164512 0.068320155
000130 48 79 3d 3d 31 67 c7 bd 32 72 c9 bd 3f 8f 79 3b
       0.04625824 -0.09736479 -0.09836234 0.0038079766
000140 d3 80 a5 bd b2 ff 21 3e 66 50 d7 bd ec 9e ff 3d
       -0.08081212 0.15820196 -0.10513382 0.12481484
000150 f9 f9 6d be 32 88 67 3d a8 90 84 3d ba d2 1c 3e
       -0.23239888 0.05652637 0.064729035 0.15314761
000160 89 b9 4a bc c9 78 2b 3d 62 df 36 3e ae 82 8e 3c
       -0.012373337 0.041863237 0.17858651 0.017396297
000170 11 38 34 3e 81 58 8b 3e e4 a4 01 be 8c b0 82 3d
       0.17599513 0.2721596 -0.12660557 0.0638133
000180 88 f7 8f bd 04 76 4e be 77 18 71 3e 90 9f 2b 3e
       -0.07029635 -0.20162207 0.23544489 0.16760087
000190 56 86 24 be bd 60 6e be fd c7 36 3d 3f 31 e7 bd
       -0.1606687 -0.2327909 0.044624317 -0.1128869
0001a0 40 be 04 bd 52 4f bb 3d 5b 5b 9f 3d f1 c8 1b 3e
       -0.032408 0.091459885 0.077810965 0.15213372
0001b0 4b 40 09 bf 5b ed 4e be 01 50 6f 3e a8 c5 04 bd
       -0.5361373 -0.20207731 0.23370363 -0.032415062
0001c0 c0 df 33 be 34 52 87 be 05 7d e3 bc ca 91 9e be
       -0.17565823 -0.26429904 -0.027769575 -0.30970603
0001d0 69 97 1b 3e 0a 42 03 be a4 72 b7 be 21 d0 03 be
       0.15194477 -0.1281816 -0.3582965 -0.12872364
0001e0 bf f6 fc bd 92 d0 57 be fb 00 ad 3e f9 80 18 bd
       -0.123517506 -0.21075657 0.3378981 -0.037232373
0001f0 7d 11 a0 3b 26 81 a1 bd 09 db e2 3c 11 6f ac 3e
       0.0048848973 -0.07885961 0.027692335 0.33678487
000200 4d 2d 42 be 78 05 4b 3e de 78 d2 bc b3 65 d9 3d
       -0.18962593 0.19826305 -0.0256924 0.10615101
000210 1b e1 08 3e a6 23 4a be 01 02 6c 3d 30 d1 82 3d
       0.13367121 -0.19740161 0.0576191 0.063875556
000220 2c 0e 1a 3c 17 c2 57 be 16 ba a2 be 6c 9e fe bd
       0.009402793 -0.21070133 -0.31782597 -0.1243256
000230 2c 5d 2e 3e 16 b4 6b 3e f7 f0 89 3d 39 fa f3 bd
       0.1702773 0.23017916 0.067354135 -0.119129606
000240 2e de 1a be 74 92 8b bc 12 1c aa 3e 01 f9 4a 3e
       -0.15123817 -0.017037608 0.3322454 0.1982155
000250 20 b3 7d be c8 8f 1b bd d0 40 8a bd 64 ec 14 bb
       -0.24775362 -0.037978917 -0.06750643 -0.0022723908
000260 9d da cd 3c fa 60 c1 bb da 69 27 3e 65 ba a2 be
       0.025128657 -0.005901453 0.16348973 -0.31782833
000270 93 f5 06 3e 1d 76 d0 bd 5c f5 e7 bb 26 c0 9d 3e
       0.13179617 -0.10178778 -0.0070788097 0.3081066
000280 3c b6 c4 3d 76 5e 7c 3e 15 20 5e be 17 ce b8 bd
       0.09605071 0.24645409 -0.21691926 -0.090236835
000290 d0 a0 dc 3d 95 ef f6 bc a2 12 4e be 12 24 64 bd
       0.1077286 -0.030143538 -0.20124295 -0.05569846
0002a0 7a d3 c1 3d 6d 39 77 3e a6 b1 d2 3d 0b 21 19 be
       0.09464164 0.24143 0.1028779 -0.14954011
0002b0 33 2a a2 bd be 2c 20 3e 89 b1 fd 3c 72 4a 6a 3c
       -0.07918205 0.15642068 0.030968444 0.014299976
0002c0 8c 56 be bd ca d2 36 3e bd d5 4b 3d 97 5a 81 bd
       -0.09293851 0.17853847 0.049764384 -0.06316107
0002d0 00 e6 9e 3c f5 32 8d 3d f7 eb a3 bd da 0b d7 3c
       0.019396782 0.06894485 -0.08003991 0.026250768
0002e0 4c 48 4a be b3 0e ca 3d 03 00 48 be 18 66 85 bd
       -0.19754142 0.09866085 -0.19531254 -0.065136135
0002f0 92 df 15 3f 09 ca 24 be 10 e8 be 3d 20 f8 1e b8
       0.58544266 -0.16092695 0.09321606 -3.790122e-05
000300 b8 cd 15 3c b3 57 4e 3e 5c 10 93 be cd bf 0f be
       0.009143285 0.20150642 -0.2872342 -0.1403801
000310 50 da 48 3b 2b c1 2b be 23 7e b3 bd 70 89 5d 3e
       0.0030647703 -0.16772906 -0.08764293 0.2163446
000320 6c 10 31 3e ae 51 22 bd 3d c9 91 bc 2e 0b 09 be
       0.1729142 -0.039628677 -0.017796153 -0.13383171
000330 11 37 cf 3d 84 b0 fc 3d 3c d0 7e 3e ee 07 69 bd
       0.10117925 0.12338355 0.24884123 -0.056892328
000340 83 f4 a2 be aa 72 00 3d 00 1e c4 bd fd 4c 43 3e
       -0.31827173 0.031359352 -0.095760345 0.19072337
000350 a2 9f 2e be 42 93 eb bd d2 23 45 3d 41 41 c3 bd
       -0.17053083 -0.115026966 0.048129864 -0.095339306
000360 fb 82 c9 bd ba c6 7a 3e d3 91 69 bd 9f f9 07 3e
       -0.09839436 0.2448987 -0.057023834 0.13278817
000370 3f 45 f8 3d 70 8e cf bd cf 70 be bd 9f d0 e3 3c
       0.12122583 -0.1013459 -0.0929886 0.02780944
000380 e9 1c ad 3e 3f ea d3 be cf f2 bc 3d b8 9f 63 be
       0.3381112 -0.41389653 0.092259996 -0.22228897
000390 6b d9 01 bf 2f ab 52 3e 99 47 bf 3d ea 5c 0e 3d
       -0.5072238 0.20573114 0.09339828 0.03475658
0003a0 f8 64 e4 3d 60 48 b4 3e 15 8f 1d 3e e2 75 df bd
       0.11152071 0.35211468 0.15386613 -0.10911156
0003b0 ec eb 3f 3d 5b be 75 3d a7 2c c5 bd e8 8f 47 be
       0.046855852 0.05999599 -0.096276574 -0.1948849
0003c0 83 23 71 3d d5 9c 4b bd 4e d1 a1 be 8c b6 39 be
       0.058871757 -0.049710114 -0.31605 -0.18136042
0003d0 db aa 91 3e ac f1 08 3e 07 71 36 3e fe 72 d1 bb
       0.28450665 0.1337344 0.17816554 -0.006391882
0003e0 f3 05 35 3e 61 74 38 3d 02 16 24 be 18 f0 a4 3c
       0.1767805 0.045032863 -0.1602402 0.020134017
0003f0 cc 63 bf bd 05 e8 1f bd 9f ca 91 bd 78 a0 1c 3e
       -0.093452066 -0.03903963 -0.07118725 0.15295589

bias f4 [16]
000000 4f cc 56 3e 84 62 39 3d 4a 8b f8 3d db 63 1a 3e
       0.20976375 0.045259967 0.12135942 0.15077154
000010 29 99 57 3e d7 67 bb bd 50 52 5c bd 13 9c de 3d
       0.2105452 -0.09150665 -0.053789437 0.108696125
000020 c8 c0 76 bd a6 07 c8 3d df 2a 3c bd b7 ad 19 be
       -0.060242444 0.09767084 -0.045939323 -0.15007673
000030 d1 a4 b9 3d 08 ce d6 3c 14 4a b0 3d e2 56 55 3e
       0.09064639 0.02622129 0.08607879 0.20833924

weight f4 [16]
000000 b5 70 61 3f 94 2a 88 3f 8d 66 79 3f ed 1e 96 3f
       0.880626 1.0637994 0.97422105 1.1728188
000010 81 02 87 3f 33 a5 8d 3f a6 dd 71 3f af 67 68 3f
       1.0547639 1.106604 0.94478834 0.9078321
000020 46 46 72 3f 97 ca a1 3f 3e 60 6f 3f 3c 10 80 3f
       0.9463848 1.263995 0.9350623 1.0004954
000030 1a 1c 4b 3f 5a dc 5a 3f fa 4e 5c 3f 62 23 9e 3f
       0.79339755 0.8549248 0.8605801 1.2354548

bias f4 [16]
000000 17 a2 c5 bd 41 c1 8d bd 09 99 bb 3d 35 56 4a 3d
       -0.09650057 -0.06921626 0.091600485 0.04939862
000010 70 d2 99 3c 03 85 d5 3d f5 8c 02 bc 5f 8a c2 bd
       0.018777102 0.104257606 -0.007968177 -0.094990484
000020 2a 6f 83 bc 1d 60 02 3e 7e bb 0c bd 5b fe d2 3c
       -0.016044218 0.12731977 -0.034358494 0.025756052
000030 24 35 1c be b1 b9 3f be 57 d6 3f be cf 9a 51 bd
       -0.15254647 -0.1872318 -0.18734108 -0.051173028

running_mean f4 [16]
000000 e1 3a 9f 3d 31 b5 24 3f 71 fd d2 3e d8 89 fe 3f
       0.07774902 0.64338976 0.41208985 1.9885817
000010 28 00 a4 3f df 0b 8a bf a2 23 90 be 7a 06 81 bf
       1.2812548 -1.0784873 -0.28152186 -1.0080101
000020 99 2a 49 bf ac 33 29 3e ca d6 b1 bf 2c b7 20 3e
       -0.78580624 0.16523618 -1.3893673 0.15694875
000030 d7 1e bd bf 11 79 54 bf 61 2f e9 be 70 46 99 3e
       -1.4775037 -0.8299723 -0.4554396 0.29936552

running_var f4 [16]
000000 70 b4 ce 3e 7a fe a0 3e d3 51 3a 3e df 91 a0 3f
       0.40372038 0.3144415 0.18195276 1.2544516
000010 f4 52 d4 3e 2d 0b 32 3f 4f f4 c2 3e d4 2d 28 3f
       0.41469538 0.695483 0.38077018 0.6569493
000020 4b 69 7a 3e 24 1f 35 3e d2 c1 23 3f 57 c7 56 3e
       0.24454229 0.1768766 0.6396762 0.2097448
000030 86 cd 4b 3f 26 50 8c 3e da 3d 95 3e 74 b6 2e 3e
       0.7961048 0.27404898 0.29148751 0.17061788

weight f4 [16, 32]
000000 0c 17 dd 3d 6e a0 b0 3d 7b a0 0f bd 74 cd 3a be
       0.107954115 0.086243495 -0.035065155 -0.18242437
000010 ba 5f 12 be ad c9 27 be e4 58 99 be 72 b3 ad bd
       -0.1429433 -0.16385527 -0.2995063 -0.08481492
000020 e7 86 38 be 23 b1 6c be 4d 7a 10 be cc 6f 1d be
       -0.18020211 -0.23114447 -0.14109154 -0.15374678
000030 71 53 05 be c9 4f 07 bc 92 11 85 3d 4a 03 b0 bb
       -0.13020112 -0.008258768 0.06497492 -0.005371486
000040 13 ba b9 bd ed 40 bc 3d 2b e2 42 be d1 53 44 be
       -0.09068694 0.09192071 -0.19031589 -0.19172598
000050 e5 03 53 3d b3 4a a8 be 93 78 ae bc 21 fe 61 bd
       0.051517386 -0.3286949 -0.021297729 -0.055173997
000060 a9 71 22 bd 55 b8 d3 3c fd 66 18 be d8 12 b3 3d
       -0.039659176 0.025844732 -0.14883037 0.087438285
000070 d6 86 c4 bd 4c 8b 97 3c 42 d5 05 3d 1e b4 7b 3c
       -0.095960304 0.01849904 0.03267408 0.0153627675
000080 68 ce d5 bd 8b aa 17 3d f5 a9 af bc 7c 06 31 be
       -0.104397595 0.037027877 -0.021443347 -0.1728763
000090 b0 af a9 3c 4e d3 b2 bd 52 69 49 3e ec dc 8d 3d
       0.020713657 -0.087317094 0.19669083 0.06926903
0000a0 2c b1 0f be 1f 54 1b 3d fa 87 2c be 25 be fa bd
       -0.1403243 0.03792202 -0.16848746 -0.122432984
0000b0 ee 41 33 bd 2f 9f 2a be 86 15 99 bd 40 06 7b bd
       -0.043764047 -0.16662286 -0.074748084 -0.061285257
0000c0 60 9c 1e 3e 14 48 b4 bb e2 b3 b5 3d 52 d2 71 be
       0.1548934 -0.0055017564 0.088722005 -0.23615387
0000d0 2f 13 23 be f2 a9 5b 3e 93 ab 58 3d fc 18 c6 3d
       -0.15925287 0.21451548 0.052898 0.09672734
0000e0 80 c8 42 bd 71 b6 65 be 54 49 57 bd 53 e8 44 3e
       -0.047554493 -0.22432877 -0.052560166 0.1922925
0000f0 de f6 e2 3c d2 6e f1 3d 90 93 de bd a1 bb 62 be
       0.027705606 0.117887154 -0.10867989 -0.22141887
000100 35 08 e2 bc a8 5d 36 be 52 6c 2b bd 84 89 b5 3d
       -0.027591804 -0.17809165 -0.04185135 0.0886412
000110 88 3a 0f be 36 cc 26 3c f9 d1 83 be 56 3e 33 bd
       -0.13987172 0.010180524 -0.25746134 -0.04376062
000120 18 87 fe 3d 60 3c 27 3e 6c 1b 58 3c 52 4e 13 3d
       0.12428111 0.16331625 0.013190132 0.035963364
000130 a4 be a7 bd 8a 1b af bd b0 83 1c be 19 60 ac 3d
       -0.08190659 -0.085501745 -0.1528461 0.08416767
000140 8e ad 23 bd 2a 95 0b be 09 9e 73 3d 28 3a 2d 3e
       -0.039960437 -0.1363112 0.059476886 0.16916716
000150 75 ee 45 be 47 ed 2b be 7d 18 3f 3c 7d 66 36 be
       -0.19329245 -0.16789733 0.011663553 -0.17812534
000160 ed 1a a6 3d a5 73 a6 bd 3f 5b 7f 3c 73 da 9f 3c
       0.081106044 -0.08127526 0.01558572 0.019513344
000170 b0 63 05 3e 74 0c d7 bd 23 6c 51 3e f0 0f 04 bd
       0.13026309 -0.10500422 0.20451407 -0.03224176
000180 2e 69 db 3d d9 17 d9 bd 43 aa 05 3d 48 62 87 3e
       0.10713421 -0.10600252 0.032633077 0.2644217
000190 a5 6e 13 3c 13 86 d0 3d f9 f8 86 be 13 4d cc 3d
       0.008998548 0.10181823 -0.26361826 0.09975638
0001a0 17 78 8d 3d c7 4e 62 bd bd 30 9a 3d 3c 10 68 3d
       0.06907671 -0.05525091 0.07528827 0.056656107
0001b0 fc 99 f7 3d d7 a7 19 be 2a 90 64 3d b3 53 a6 3d
       0.12089917 -0.15005432 0.055801548 0.08121433
0001c0 c5 ec 8e 3d f9 57 d2 3d 3d 9c 40 be 1f 84 69 3e
       0.06978754 0.10270686 -0.188096 0.22804306
0001d0 61 4b 3a 3c 6b 70 15 be 28 91 87 be 84 6d 8b bd
       0.011370511 -0.14593665 -0.26477933 -0.06807998
0001e0 9c 8f 12 3e 88 93 40 3d 42 59 d2 bc fd 9c 12 3d
       0.14312595 0.047015697 -0.025677327 0.035794247
0001f0 9b 35 af bd 57 5d 19 3d d3 bb 5e bd 1d 66 86 3d
       -0.08555146 0.03744253 -0.054378342 0.06562445
000200 77 0d 8f be 57 cf 7b 3c 83 d9 36 3d 92 69 67 bc
       -0.2793996 0.015369258 0.04464103 -0.014124291
000210 48 3c 79 bc 8f 0c d9 3d 03 32 18 3e b5 08 02 3e
       -0.015212126 0.105980985 0.14862828 0.12698634
000220 ba 4b 06 3c 41 3a 06 3e ba 2e 57 be 42 7d a8 3d
       0.008196766 0.1310816 -0.21013919 0.08227016
000230 c1 02 d5 3d 3a 2f 16 be fb 49 ca bc 2f 44 f6 bd
       0.10400916 -0.14666453 -0.02469348 -0.12024724
000240 c0 2e 6e 3d 71 3c 9d be 2f b1 e6 3d c3 b1 22 be
       0.058150053 -0.30710176 0.11264264 -0.15888123
000250 27 3a bc bd 18 a2 62 3d c1 5a ac 3c 46 9f c4 3d
       -0.09190779 0.055330366 0.021039369 0.096006915
000260 21 ab a6 3c e3 36 8a be db da 16 3e 38 18 29 3e
       0.020345272 -0.26995 0.14731924 0.16513145
000270 34 28 86 3d 7a 26 3c be 44 fe 44 bd 21 ec 82 be
       0.06550637 -0.18374053 -0.04809405 -0.25570777
000280 63 a9 b6 3d 4a 8a e4 3d 48 72 2e 3e 73 ee d6 3d
       0.08919027 0.11159189 0.17035782 0.10494699
000290 cf 7e b6 bd 33 c2 1b 3e d7 9a b9 3d 03 87 e0 bd
       -0.089109056 0.152108 0.090627365 -0.109632514
0002a0 74 63 92 bc 43 5b c3 bc bf dd 88 3e 85 19 bb be
       -0.017869689 -0.023847228 0.2673168 -0.36542907
0002b0 1c 11 b9 be 76 35 72 3e f9 83 16 3e 37 d7 6a 3d
       -0.36145866 0.23653206 0.14698781 0.05733415
0002c0 3b 01 e0 bd f9 b3 c5 bd 45 48 03 bd a5 4d 2c 3e
       -0.10937735 -0.09653468 -0.032051343 0.16826494
0002d0 68 32 91 3d f3 28 e9 bc 3c 60 89 3d 58 7f 3b 3d
       0.07089692 -0.028461909 0.067078084 0.04577574
0002e0 4c 9f 96 bd b7 3c f6 bd f3 9a d2 3d 35 48 f6 bd
       -0.07354602 -0.12023299 0.102834605 -0.12025491
0002f0 13 2d 29 bc ee 9e fc 3c fe 3f 44 3d c6 00 96 3c
       -0.010325688 0.030837502 0.04791259 0.018310916
000300 6f a5 b0 bc c4 4f c5 bd c0 89 ba 3d 0a a7 ce bc
       -0.02156326 -0.09634355 0.09108305 -0.025226135
000310 9b b3 ba 3d 7f 1b 00 3e 29 68 11 be 88 f1 28 3e
       0.09116288 0.12510489 -0.1419989 0.16498387
000320 cb 90 ce bd 9a b3 cf bd 89 57 37 be 2d 42 c1 3d
       -0.10086211 -0.10141678 -0.17904486 0.0943645
000330 af f9 97 bc 0b 9d ce 3d 28 eb c6 3d 9a 0f e3 bc
       -0.018551676 0.10088547 0.09712821 -0.0277174
000340 f6 d1 91 bd 7b 47 50 3e e4 b2 6b bc df 3f 1b 3e
       -0.07120125 0.20339768 -0.014385913 0.15161084
000350 a6 84 1f be b5 93 47 be 14 44 df bd 36 32 ee bd
       -0.15577945 -0.1948994 -0.10901657 -0.11630671
000360 e4 32 77 be 56 8f 04 3e d4 49 dd bd a6 0b 96 bc
       -0.24140507 0.12945303 -0.10805097 -0.018316101
000370 6a 70 88 3b bd 3a 45 be 92 d2 a1 3d 23 da 41 3e
       0.0041637914 -0.19260688 0.07901491 0.18930869
000380 58 62 16 be e9 3c 7e be f6 5b fa 3b d5 b0 12 bd
       -0.14685953 -0.24827923 0.007640357 -0.03581317
000390 47 00 3a be 64 5f 8e 3d 66 f1 33 be f7 a0 51 3d
       -0.18164168 0.06951788 -0.17572555 0.0511789
0003a0 9e cd 1e 3e e8 07 4f bd 6a 79 fb 3d ff 55 4e bd
       0.15508124 -0.05054465 0.12279017 -0.05037498
0003b0 2a 8d 58 bd ec bb ad bd c6 2b 4d be dd b2 62 3e
       -0.052869 -0.08483109 -0.2003623 0.22138543
0003c0 e3 bb 1b 3d 20 91 e1 3d 1e 24 42 be 4b 21 18 3e
       0.03802098 0.110140085 -0.1895909 0.1485645
0003d0 b5 43 ba bb fe 09 ed bd 5e 26 8b bd f7 53 43 3b
       -0.005684341 -0.115741715 -0.06794427 0.0029804686
0003e0 80 d7 1c 3e c5 a8 31 be db 9e 1e be 6c 7d 70 3d
       0.15316582 -0.17349537 -0.15490286 0.05871336
0003f0 cd a7 f1 3b 4f 07 08 bd e8 ed 16 3e 34 17 12 3d
       0.0073747397 -0.033210095 0.14739192 0.03566666

bias f4 [16]
000000 4b be 28 3c 9c 57 a7 3d 78 08 a9 bd 6a dd b3 3d
       0.010299276 0.08171007 -0.082535684 0.08782466
000010 7a e6 0d bc 53 88 10 3d 6a 6b 36 be 6b 9a 87 bd
       -0.008660907 0.03528626 -0.17814413 -0.0662125
000020 d2 59 c6 bd 3b b9 88 bd ee 79 bc bd d9 5f 19 be
       -0.096851006 -0.06675955 -0.09202944 -0.14977969
000030 ce bd 95 bb ec 9d c8 3d 96 0f f7 3d b1 77 b9 3d
       -0.0045697456 0.09795746 0.1206352 0.090560324

weight f4 [16]
000000 f9 5c b3 3f 0b fe 88 3f 6e 01 a7 3f d2 b7 9d 3f
       1.4012748 1.0702528 1.3047311 1.2321723
000010 fe 82 67 3f b1 3d a4 3f 9c e5 75 3f 8e 39 51 3f
       0.90434253 1.2831327 0.9605348 0.81728446
000020 64 2c 6c 3f a8 bf ad 3f 64 3f a9 3f 1b c0 85 3f
       0.92255235 1.3574114 1.322247 1.0449251
000030 02 15 90 3f 05 61 a0 3f 1a cf 6e 3f d4 36 a3 3f
       1.1256411 1.2529608 0.9328476 1.2751107

bias f4 [16]
000000 ad fc ed 3e 07 44 24 3e d9 bd b5 3e af b9 9f 3e
       0.4648184 0.16041575 0.35496405 0.31196353
000010 f4 e3 ae bd f7 a8 b7 3e 8c c7 34 3d 2c 0b 58 be
       -0.08539572 0.35871097 0.044135615 -0.21098012
000020 1a ec e6 bd 43 ec d3 3e e0 52 95 3e 51 ee 51 bc
       -0.112755015 0.4139119 0.2916479 -0.012813167
000030 81 2c 4b 3e 7a 2e b6 3e 39 18 c2 bd 5d 3b cb 3e
       0.19841196 0.35582334 -0.09477276 0.39693728

running_mean f4 [16]
000000 d7 d5 7f c0 fd df db 3e 28 a3 3c c0 9d a7 1b bf
       -3.9974267 0.42944327 -2.9474583 -0.6080263
000010 6c 16 96 3f 04 15 f5 3f d4 50 2d bf 9c f3 2e c0
       1.1725593 1.9147038 -0.6770146 -2.7336187
000020 4c 6a 1a 3d 18 6f f8 3f d0 c8 a0 3f fa c7 da 3f
       0.03769903 1.9408903 1.2561283 1.7092278
000030 1b 9c 1e c0 ee 5b 17 3f 04 83 e8 3e d6 63 82 3f
       -2.478278 0.5912465 0.45412457 1.0186718

running_var f4 [16]
000000 00 06 18 40 0f e6 95 3f bd 56 fe 3f 87 30 a2 3f
       2.3753662 1.1710833 1.987022 1.2671059
000010 6b 63 a3 3f 56 0a e2 3f a9 75 47 3f 40 e1 bd 3f
       1.2764715 1.7659404 0.7791391 1.4834366
000020 ad 3e 29 3f 4a c4 1c 40 8e cb b4 3f 01 52 ad 3f
       0.6611126 2.4494805 1.412462 1.3540651
000030 dc 47 4a 3f 29 01 9c 3f 20 7d 24 3f 75 0a 30 3f
       0.790159 1.2187854 0.64253426 0.68765956

weight f4 [3, 16]
000000 8f 19 6e 3d 40 52 d5 bd fc d1 66 3e e5 91 69 3e
       0.058129843 -0.104160786 0.2254104 0.2280956
000010 44 88 07 be f4 0c 72 3e 6c fa 86 3e 89 57 22 3e
       -0.13235575 0.23637754 0.26362932 0.15853705
000020 75 b5 cc bd 12 d0 ad 3e ba e8 45 3e 0b bf ce 3e
       -0.09995548 0.33947808 0.1932706 0.4038013
000030 16 20 93 3a 19 6c 3f 3e 82 85 24 bd 2c ce 5f 3e
       0.0011224772 0.1869358 -0.040166385 0.21855992
000040 82 71 eb bc 21 5a 21 3e e6 7b 59 3e 11 d9 3a 3e
       -0.028740648 0.15757038 0.2123867 0.18246867
000050 44 1e 49 3e 0b 96 34 3e fd 68 5f 3d 99 e7 28 bd
       0.19640452 0.17635362 0.054543484 -0.041236494
000060 af cb 19 3e 28 d0 90 3e 33 6b b1 3d 80 c0 3a 3e
       0.15019105 0.2828381 0.08663025 0.18237495
000070 fd 06 55 3d c7 04 9a 3e cf fe b7 3e 97 1a 5b 3e
       0.052008618 0.3008177 0.3593659 0.21396862
000080 76 7e e3 be d0 b5 02 bf 98 ba 85 be cd 3e d7 be
       -0.4443242 -0.51058674 -0.26118922 -0.420401
000090 0e c4 be bc 73 56 07 bf e8 21 01 be f7 9d da 3c
       -0.023286846 -0.52866286 -0.1261059 0.026686652
0000a0 d4 3e 00 be f1 4a 58 be 08 e8 06 bf c9 78 c0 bc
       -0.12523967 -0.21122338 -0.526978 -0.023495095
0000b0 5c 64 9d be 7e 1c 06 bf 29 fd 21 3b 33 43 d7 be
       -0.3074063 -0.52387226 0.0024717546 -0.42043456

bias f4 [3]
000000 5d 37 7e 3e a3 2a 00 3f 3d 3e f8 be
       0.24825807 0.5006506 -0.48484984
