old/FC_CNN/fc_cnn_model.pth (torch, 36568 bytes, 20 tensors)

weight f4 [16, 3, 3, 3]
000000 28 35 84 3e ba 78 83 3e d1 e0 f8 3d f5 cf 8e 3e
       0.25821805 0.25678045 0.12152255 0.27893034
000010 be 79 63 3d 3b 2f 21 3e 84 74 48 bd c5 f6 4f 3e
       0.055536024 0.15740673 -0.048939243 0.20308979
000020 14 08 88 3e ac 59 44 bd 70 41 5f 3e ff 1c 32 3e
       0.26568663 -0.04793708 0.21802306 0.17393874
000030 b2 7e 6d 3e fe 19 a1 3d 0b b6 38 3e 01 e6 23 3c
       0.23192862 0.07866286 0.18038194 0.010003568
000040 57 dc 4f 3e 67 89 c4 3d 66 59 06 3e 3b c6 a4 3e
       0.20298897 0.0959652 0.1312004 0.32182488
000050 d1 65 14 3e b9 6d 37 3e f0 ca 2a 3e 4a ca b8 3e
       0.14491965 0.1791295 0.16678977 0.36091834
000060 73 88 f9 bc 24 0c e5 3d e4 0d be 3d 07 04 db 3c
       -0.030460572 0.11183956 0.09279993 0.026735319
000070 7c d6 74 be 73 c7 31 be ed 99 3c bd 0a f1 13 bc
       -0.23909944 -0.1736124 -0.046045233 -0.009029636
000080 4f 74 92 3e f9 da 44 3e b5 0c cc 3d 9e c9 8a 3e
       0.2860436 0.19224156 0.09963361 0.27106947
000090 92 b2 57 3e 81 1f ab 3e 81 fd 33 3e 6d 25 e3 3d
       0.21064213 0.33422473 0.17577173 0.11091123
0000a0 d4 26 5c 3e 07 fe cf 3d c1 89 7b 3e c8 53 ac 3e
       0.21499187 0.10155874 0.24564268 0.3365767
0000b0 20 47 8a 3e f2 c5 e2 3d 40 21 d2 3d 79 ef 24 3e
       0.2700739 0.11072911 0.10260248 0.16106977
0000c0 a5 04 d4 3c 0d e0 53 3d f5 23 1d bd 8b f8 d3 3d
       0.025881121 0.051727343 -0.03836437 0.1035014
0000d0 82 0e e2 3c c5 34 a9 3e 10 fc 42 3e 80 a6 32 3e
       0.027594808 0.33048072 0.19041467 0.17446327
0000e0 4d 20 60 3e e5 74 e2 3d 18 41 8f 3e f6 1b 65 3c
       0.21887322 0.11057452 0.2797935 0.013983717
0000f0 9f 44 1d 3e 87 3f 11 3d 26 97 96 3e b0 71 8c 3d
       0.15358208 0.035460975 0.29412192 0.06857622
000100 9b 0f 18 3e 77 40 e0 3d b5 bd 8c 3e 2e 62 18 3c
       0.14849703 0.10949796 0.27488485 0.009300752
000110 d0 09 ea 3c 7c 31 c4 3c e3 4e aa 3e 1b 49 93 3e
       0.028569132 0.023949377 0.3326331 0.28766713
000120 9e d1 b9 3e 3d 85 7d bc 6e 72 1f 3b 42 f9 94 3c
       0.36292738 -0.015473661 0.002432968 0.018185262
000130 9f 9e 07 3d 35 ad 87 3e ee 9e 8e 3e b8 1c b6 3e
       0.033110257 0.26499334 0.2785563 0.35568786
000140 41 77 2f 3e 2b 2e f3 be d7 e6 43 bd 9c 5c 1f be
       0.17135336 -0.4749616 -0.047827568 -0.15562671
000150 14 d1 98 bd 84 df 81 be b7 c1 5b 3d 48 b3 89 be
       -0.074617535 -0.2536584 0.053651538 -0.26894593
000160 4e 38 55 be 47 7b 9f 3c bd 8b 91 be 55 78 10 be
       -0.2082226 0.019467963 -0.28426924 -0.14108403
000170 a0 5e ad 3d 45 5c c0 bc 15 74 7d be bc 4d a1 bd
       0.08465314 -0.023481498 -0.24751313 -0.07876155
000180 c9 e1 08 bc aa 6e 40 be 6b 95 d7 bd 4a 72 96 be
       -0.008354613 -0.18792215 -0.10526546 -0.2938407
000190 67 24 11 be 7e 72 72 3d 2e 15 0b be 39 1a e9 bd
       -0.14174043 0.05919122 -0.13582298 -0.11381955
0001a0 ca 9f 8a 3d 5d 5c 92 be 27 61 a3 be 0b 1f 32 be
       0.067687586 -0.28586093 -0.3191006 -0.17394654
0001b0 98 bb 1d bc 93 e4 4c 3e 12 b3 f2 3e ed 21 55 3e
       -0.009627245 0.20009069 0.47402245 0.20813723
0001c0 94 07 d9 3e ee dc 5e 3d 29 0e 81 3e 67 32 1f 3d
       0.42388594 0.054409914 0.25206116 0.038866427
0001d0 16 5f 42 3e 4a 2e ac bc 27 88 80 3e aa 4a 49 3e
       0.18981585 -0.021018166 0.25103876 0.19657388
0001e0 81 dd 25 3e aa 2b 7e 3e 52 0a 91 3e 51 42 73 3e
       0.16197778 0.24821344 0.28328186 0.23755766
0001f0 57 0a 38 bd 58 87 b2 3c a2 cf 88 3d ec 98 7b 3d
       -0.044931736 0.021793053 0.06680228 0.061425135
000200 55 ff ef 3e ea e7 d3 3d fa 67 bd 3e 1d a8 a5 3e
       0.4687449 0.103469685 0.3699339 0.32354823
000210 7c 1e 19 3e e0 fc 19 3e 49 66 43 3d c1 04 55 be
       0.14953035 0.1503787 0.04770497 -0.20802595
000220 d3 39 97 be 5d f2 a4 be e1 39 8e 3d 10 8e fa bc
       -0.29536304 -0.32216159 0.06944633 -0.030585319
000230 0f e2 51 bd 54 18 00 be d3 9d 24 3e b2 b3 79 be
       -0.051240977 -0.1250928 0.1607583 -0.24384955
000240 3a 9c 40 be 81 73 f2 bd 4a b2 3f bd 96 2a 96 3d
       -0.18809596 -0.11838437 -0.04680089 0.073323414
000250 1f 50 14 3e 92 18 a1 be 27 05 22 3d 16 8e 22 be
       0.14483689 -0.31464058 0.039555695 -0.15874514
000260 60 8a 27 be 44 ea ae be 6b 3b f7 bc 23 a0 9e be
       -0.1636138 -0.34163105 -0.0301797 -0.3098155
000270 f6 f0 4a bd 40 53 dd bd d9 3e 13 be 47 5c 6e be
       -0.049546205 -0.10806894 -0.14379443 -0.23277389
000280 a5 c4 a7 3c e0 7b 19 be b8 b8 34 3e fa 55 8a bc
       0.02047951 -0.14988661 0.1764859 -0.0168867
000290 2c d5 6c 3e b9 c8 e8 3d 66 bc 29 3d 89 14 9f 3e
       0.23128194 0.1136641 0.041439436 0.31070355
0002a0 96 9b 52 3e ab ee 45 3d 0d a0 8d 3d 70 c1 14 3e
       0.20567164 0.048323315 0.06915293 0.14526916
0002b0 c5 a3 88 3e 8d b3 d9 3d 0e 15 fb 3c 1f d4 20 3d
       0.26687446 0.1062995 0.030649688 0.039264794
0002c0 b0 31 ef 39 4d 4f 6e 3e 49 26 9b 3e 1e 88 75 bc
       0.00045622652 0.23272438 0.30302647 -0.014986066
0002d0 7c f5 55 3e 8a c6 8b 3e 5a e6 49 3e ad bc b0 3d
       0.20894426 0.2729991 0.19716778 0.08629737
0002e0 78 58 78 3e 8a f3 81 3e c4 26 78 3e 30 76 04 3e
       0.24252498 0.25381118 0.24233538 0.1293571
0002f0 e4 a5 ff 3d 2f 19 0f be 52 2b 3e be 7a c1 5d be
       0.12482813 -0.1397445 -0.18571213 -0.21655837
000300 12 d1 9a bd d7 fd d2 bb 9f a3 53 3d 42 65 79 be
       -0.07559408 -0.0064389515 0.051669713 -0.24355033
000310 fe fd 1d be ba 20 e0 3c 81 79 df bd b6 53 bd bd
       -0.15428922 0.027359355 -0.10911847 -0.09244482
000320 5c ff a7 be 45 27 87 be f1 a1 18 bc 3d 09 e6 3d
       -0.3281201 -0.26397148 -0.009315954 0.11232231
000330 de 34 58 be 28 aa 93 be be df 60 be 31 b2 a6 be
       -0.21113917 -0.28840756 -0.21960351 -0.32557824
000340 f6 53 54 be 46 9a b4 bd 63 6b 68 bd b7 64 91 bd
       -0.20735154 -0.08818488 -0.056743037 -0.07099288
000350 19 bb ff bd 26 0b 9e be ce 9a 4a be 20 a0 0e 3e
       -0.12486858 -0.3086788 -0.19785616 0.1392827
000360 55 b4 87 3e 39 7f e3 3d 89 8e 35 3e 44 78 6b be
       0.2650477 0.1110825 0.17730154 -0.22995096
000370 6c 7b 09 bf f8 40 17 bd 9b 35 ae b9 59 e3 d9 3d
       -0.5370395 -0.036927193 -0.00033227805 0.10639066
000380 e4 e9 e6 3c 9b 3f 90 3e ea 43 87 3e 59 95 78 3d
       0.0281877 0.28173527 0.26419002 0.060689304
000390 9a 93 a5 be 09 6b 1b bf 62 4a e2 be cc 3a 1a 3e
       -0.32339174 -0.607102 -0.44197375 0.15061492
0003a0 97 d2 1a 3e 43 e4 95 3e 47 ef c6 3e ae 48 91 3e
       0.15119396 0.29275712 0.3885443 0.28375763
0003b0 e4 4d aa bb be 53 62 be e9 85 e0 be 0c 43 e7 be
       -0.0051972736 -0.22102258 -0.43852165 -0.4516834
0003c0 98 fb 3a 3e 12 c8 90 3d 29 f0 f7 3d d0 6b 44 be
       0.18260038 0.070694104 0.12106354 -0.19181752
0003d0 1c ca 96 3d 25 b8 89 be 61 cc 9f be 09 26 91 3d
       0.07362768 -0.26898304 -0.31210616 0.07087333
0003e0 b9 d4 12 be e4 8c 04 3e bf f3 cf bc 64 a0 1b be
       -0.1433896 0.1294437 -0.025384782 -0.15197903
0003f0 cc 15 5e 3d 71 61 27 3e a7 63 d6 be 70 8b a8 be
       0.054220006 0.16345765 -0.41872904 -0.32918882

bias f4 [16]
000000 f4 54 e5 bc 6d 94 4b 3d 94 a0 97 3d 72 91 11 3e
       -0.02799461 0.049702097 0.07403675 0.14215639
000010 cc e7 69 be cc 43 21 be 70 f5 34 be b9 85 f3 bd
       -0.2284233 -0.15748519 -0.17671752 -0.1189074
000020 c4 b3 74 3d 5f 3d d7 bd 0a 5a ac 3d 14 fc 49 3e
       0.05974175 -0.105097525 0.08415611 0.19725066
000030 21 a9 cf 3d 74 dc fc be f4 3e 8a be 9f 00 a4 3e
       0.10139681 -0.49386942 -0.27001154 0.32031724

weight f4 [16]
000000 72 ee 71 3f ff fa 36 3f 23 72 97 3f be a1 51 3f
       0.94504464 0.7147674 1.1831707 0.81887424
000010 25 46 52 3f 7d 70 52 3f 8b 70 73 3f 8b e1 41 3f
       0.8213828 0.82202893 0.950936 0.75734776
000020 54 28 d2 3f fb f4 82 3f 17 9e 76 3f 4f 5b 5c 3f
       1.6418557 1.0231012 0.96334976 0.86076826
000030 55 9c 7c 3f 69 a8 8f 3f 27 61 67 3f 7f 52 65 3f
       0.98676044 1.122327 0.9038262 0.89579004

bias f4 [16]
000000 62 7f a1 3e ff 0c 30 3d 3e 48 ae 3e 2b 63 1c bc
       0.31542498 0.042981144 0.3403949 -0.009545128
000010 7c 0c 90 3e e6 58 2c 3d 7e d4 a4 3e fa 3b bb 3b
       0.28134525 0.042076968 0.3219337 0.005713937
000020 ea 10 e0 bd fd 6e 5c bd b1 52 06 3e d6 c7 5d be
       -0.10940726 -0.053816784 0.13117482 -0.21658263
000030 10 2b 45 3e 90 b9 0b be 38 86 74 3e 19 4e 5d 3e
       0.19254708 -0.13645005 0.23879325 0.21611823

running_mean f4 [16]
000000 7e 1d e4 3f ed b6 bc 3f 19 bc f6 3f da 17 ab bf
       1.78215 1.4743325 1.9276153 -1.3366654
000010 77 8e f7 3f 10 9f c2 bf bc 53 cd 3f 7d bf d5 bf
       1.9340352 -1.5204792 1.6041179 -1.6699063
000020 10 bf ba be 2e 21 c2 bf 2b 25 02 c0 ef 04 00 c0
       -0.36473894 -1.5166376 -2.0335186 -2.0003011
000030 93 80 b5 bf 1b 33 a9 bf f5 01 db 3f da 16 a0 bf
       -1.4179863 -1.3218721 1.7109972 -1.2506974

running_var f4 [16]
000000 d3 67 8d 3f d0 30 32 3f 1d e2 94 3f c1 51 3b 3f
       1.104731 0.6960573 1.1631504 0.7317162
000010 09 ff c9 3f cb 79 26 3f a7 78 8a 3f 52 f6 54 3f
       1.5780956 0.6502959 1.081807 0.83188355
000020 2f 49 f1 3d 84 5d 2d 3f a6 c4 c4 3f 1b cb d3 3f
       0.11781537 0.6772082 1.5372512 1.6546358
000030 c9 cb 4d 3f 62 9e 89 3e 88 e9 aa 3f 59 5d 50 3f
       0.80389076 0.2687865 1.3352518 0.8139244

weight f4 [32, 20]
000000 7e 26 8d 3e e1 51 15 3e b9 21 6f 3e a9 6c 92 be
       0.2756843 0.14582016 0.23352708 -0.28598526
000010 83 dd 0f be f0 c0 1b bf b7 1f 6d 3e 22 69 15 3f
       -0.14049344 -0.60841274 0.2315663 0.58363545
000020 22 52 8e bf b9 06 7b 3e 8e 71 bd bd 35 fb 1d be
       -1.1118815 0.24514283 -0.092501745 -0.15427859
000030 b2 75 15 3e 42 dc db 3e 5b d7 18 3e 2d c0 42 bf
       0.14595678 0.4294148 0.14925902 -0.76074487
000040 26 dd c1 3e 7b 90 bf be 59 d5 78 be 5a d4 e8 3e
       0.37864035 -0.37414917 -0.24300136 0.4547451
000050 64 5e 7e 3d 73 17 32 3e 3b 05 7a bd 70 59 16 bd
       0.062101737 0.17391758 -0.061040144 -0.036706388
000060 34 63 18 bf 50 96 fb 3e 32 84 7e 3e 9d b3 29 3f
       -0.5952637 0.49138117 0.24855116 0.66289693
000070 1b 4b 85 3f 19 54 0c bf 2b 20 af be 4c f3 11 3f
       1.0413545 -0.5481582 -0.3420423 0.57011867
000080 6c b9 60 3d df 41 12 be b5 68 0e bf 6b 26 1e 3f
       0.054864332 -0.1428294 -0.5562852 0.6177737
000090 ad 0e 5a be af d9 e7 bd c5 60 2c 3e ad 2d bd 3e
       -0.21294661 -0.11320817 0.1683379 0.3694891
0000a0 e5 d8 0a 3e 65 c8 5b 3e 39 6b e8 3d cc 9e 8c bd
       0.13559301 0.21463163 0.11348576 -0.068662256
0000b0 29 26 db be 9e 1c ae 3e 18 d4 ee 3d 5f a4 62 3d
       -0.4280255 0.34006208 0.116615474 0.055332538
0000c0 5d dd 87 3f db 4f a4 3e 42 a8 a5 3e 30 11 86 3e
       1.061443 0.32092175 0.32354933 0.26184988
0000d0 60 58 cc be 2e b0 b3 be c6 4f 77 be d8 68 ed 3e
       -0.39911175 -0.35095352 -0.24151525 0.46369052
0000e0 8a 6e 02 3e 80 36 a5 3d f1 d2 1a bd 59 5f 37 3e
       0.1273748 0.08067036 -0.037798826 0.17907466
0000f0 82 29 7d be 7a 3d b0 be c1 a2 c6 bd 3f eb af be
       -0.24722865 -0.34421903 -0.096990116 -0.34359166
000100 4a af cc bc 3a cf 41 3e e4 82 12 3e 4f ec 92 be
       -0.024985928 0.18926707 0.14307743 -0.28695914
000110 6a b4 9b 3e 3b 13 66 bd cf 3d 42 be 14 d2 24 3d
       0.30411083 -0.056170683 -0.1896889 0.04023941
000120 34 fa e4 bc 4e 97 f2 3e e2 e8 de be 21 b4 49 3e
       -0.027951337 0.4738106 -0.4353705 0.1969762
000130 20 8c e6 bd 39 35 31 3e 44 4f 8d be d8 7e 8a be
       -0.112571955 0.17305459 -0.27599537 -0.270499
000140 05 fb c4 3d d2 38 12 3d c4 68 1c be 41 f5 83 3e
       0.09618191 0.03569872 -0.1527434 0.2577305
000150 bd 13 7c 3e f2 9f e4 3d 60 4d fa 3c 95 f6 56 be
       0.24616905 0.1116332 0.030554473 -0.20992501
000160 b0 fe b9 be 25 9d b0 3e 3b fb 06 bf c3 15 dc bd
       -0.36327124 0.34494892 -0.527271 -0.10746338
000170 a3 f2 10 bf 27 2f a4 3e 39 a5 aa be da 47 53 3e
       -0.56620234 0.32067224 -0.3332918 0.20632878
000180 b9 7f 66 bd 8d 04 a0 3e d9 5f 03 3e f7 39 1c 3d
       -0.05627415 0.31253472 0.12829532 0.038141217
000190 d0 a9 fc 3d 5e 50 1a 3e 49 5b 8c be 10 4c d5 bc
       0.12337077 0.1506972 -0.27413395 -0.026037246
0001a0 be fe a5 be 1f 6f 78 3c 6c 9a fe 3e 66 f6 df 3b
       -0.32420915 0.015163212 0.4972719 0.006834793
0001b0 fb 9e 9d 3f 6c 77 35 be c5 d7 c7 3e c6 bc 91 3e
       1.2314142 -0.17721337 0.39031807 0.28464335
0001c0 5d 0a e2 3d 1f a6 39 be 5d 7b f7 be 26 95 7b 3e
       0.11037133 -0.18129776 -0.48336306 0.24568614
0001d0 ea 3b 8f be e4 d1 c6 bd 6e 69 56 3d e2 51 51 3e
       -0.27975398 -0.09708002 0.05234664 0.20441392
0001e0 18 1f ac be 1c 55 d4 be 3d ad d9 3d 3e 81 54 be
       -0.33617473 -0.41471183 0.10628746 -0.20752427
0001f0 d4 60 11 bf e9 7f 9a 3e 3d 6b c0 3d 4d 13 71 3e
       -0.56788373 0.30175713 0.09395454 0.23542519
000200 7a 9f 56 3f 59 09 05 bd 20 0b 32 be db 0b b0 3d
       0.8383709 -0.032479618 -0.17387056 0.08596011
000210 67 1a 23 3e 8f 3b 2e 3d fc 67 60 be 6c 86 be 3e
       0.1592804 0.04253727 -0.21914667 0.3721193
000220 a7 f9 0a 3e 65 b8 27 3d 63 06 1c be 36 ff 6b be
       0.13571797 0.040947337 -0.15236811 -0.23046574
000230 53 a5 0a bc d1 06 b6 3d 6b 44 a2 bd 87 5a fa 3d
       -0.008462268 0.08888019 -0.07923206 0.12224298
000240 0b 20 99 be 4d 93 3e bc f0 48 27 be 8b 91 88 be
       -0.2990726 -0.011631799 -0.16336417 -0.2667354
000250 00 a5 83 3f 0f 34 fc be fc fc 26 3e 3d c3 85 3d
       1.0284729 -0.49258468 0.16307443 0.06531379
000260 1d b1 21 be f6 a0 24 be 7e d0 aa be 62 81 ba 3d
       -0.1579022 -0.16077027 -0.33362192 0.09106709
000270 d6 61 ef bd 96 a1 9f be af 3d 9c 3e b8 af 50 3e
       -0.116885826 -0.31177968 0.3051581 0.20379531
000280 01 b2 fa 3d 54 29 a9 3e 37 8e 6d 3e 76 c9 6e be
       0.12240983 0.33039343 0.23198782 -0.23319039
000290 f8 51 25 bf 42 54 33 3e 84 51 f3 3e e8 65 74 3e
       -0.645782 0.1751261 0.4752313 0.23866999
0002a0 c2 74 0e bf 22 a3 ce 3d 97 4b 82 bb 5e 95 1c 3e
       -0.5564691 0.10089709 -0.003976296 0.15291354
0002b0 86 de 3c be 7c f9 4a bd 28 cc 9e be cc c4 0b be
       -0.18444261 -0.049554333 -0.31015134 -0.13649291
0002c0 df d2 5b 3e 57 c9 b6 be bf e1 81 be 41 e7 7c 3e
       0.2146716 -0.35700485 -0.25367543 0.24697591
0002d0 f4 8b ef be 0b d5 28 be 69 a2 9e bd ed bd 38 3e
       -0.46786463 -0.1648752 -0.07745821 0.18041201
0002e0 a0 63 9d 3e 53 0b 3b bc ee b2 99 be f1 26 95 be
       0.3074007 -0.011416274 -0.30019325 -0.29131272
0002f0 71 41 1d bf bc a5 cc bd a3 2e 5d be 23 59 a6 be
       -0.6142798 -0.09992549 -0.21599822 -0.3248988
000300 01 be 68 3e e8 d3 a6 be d6 84 04 3f c3 22 bd 3d
       0.2272873 -0.32583547 0.5176519 0.09235146
000310 61 1d c1 be b2 64 9d 3d bd 9a f3 3c cf dc ee bd
       -0.37717727 0.07685222 0.02973687 -0.1166321
000320 59 30 29 bd 04 58 5d bd a6 47 01 3e d6 f5 ed be
       -0.041305874 -0.054039016 0.12624988 -0.4647662
000330 a0 c3 06 3f b2 58 7e bd 3a 01 a9 3e b3 6f 09 3d
       0.5264225 -0.062096305 0.33008748 0.03355379
000340 7d 2c 3e bf 12 35 1d 3e 98 32 21 be 4e eb 92 3e
       -0.74286634 0.15352276 -0.15741956 0.28695148
000350 0e 50 cd bd 2f 1f 9c be 12 1e e4 bd 37 2c d6 bd
       -0.10025035 -0.3049254 -0.11138548 -0.10457652
000360 f8 0d 00 3e fb fe 1e be 59 dc ad 3e a1 02 c2 3e
       0.12505329 -0.15526955 0.33957174 0.3789263
000370 c7 22 d3 3c 6f fb 1c 3e 1c 2a bb bc d4 0a ce 3d
       0.025773419 0.1533029 -0.022847228 0.10060659
000380 22 e1 8d be c2 08 98 bb b5 c2 5b be c6 d8 fc 3d
       -0.27710825 -0.004639716 -0.21460994 0.12346034
000390 dd 39 ac 3f 19 83 ad 3e 76 da 43 be 7b 66 d5 3e
       1.3455158 0.33889082 -0.19126305 0.4167975
0003a0 61 af 0c 3c 5c 90 a7 bd 93 75 8d be 62 f6 14 3f
       0.008586735 -0.08181831 -0.27628765 0.5818845
0003b0 e1 f8 a5 bd 22 18 89 3d a1 95 52 3e e4 9e 87 3e
       -0.081041105 0.06694056 0.20564891 0.2648841
0003c0 ac 46 4c bd 6c 73 ec bc 5a 2b 37 3e 64 38 6e 3c
       -0.049872085 -0.028863631 0.17887631 0.014539812
0003d0 58 4c 7c be a8 bd 60 3f 44 14 0f 3e e8 27 41 be
       -0.24638498 0.8778939 0.13972574 -0.1886288
0003e0 ee 22 81 3f 80 dd 08 3f ca 71 67 be ce 98 27 3f
       1.0088785 0.5346298 -0.22602001 0.65467536
0003f0 9a 3b aa 3d 7d 0a b0 be 20 06 09 bf 94 2f 2b 3f
       0.08312149 -0.34383002 -0.5352497 0.66869473

bias f4 [32]
000000 dc 83 e7 bd df e2 5d be 26 49 cd 3d 16 2a 10 3e
       -0.11304447 -0.21668576 0.100237176 0.14078555
000010 ab 0d 39 be 18 c8 23 3e 1e b9 43 3e 4f 5a 92 3c
       -0.1807162 0.15994298 0.19113585 0.017865328
000020 c6 00 07 be 9b b6 f0 3d cf a0 ee 3d 70 78 5f 3e
       -0.13183889 0.11753579 0.116517656 0.21823287
000030 d3 35 02 be 38 ae e8 3d 48 0b 10 be 17 0d 86 3e
       -0.12715845 0.113613546 -0.14066803 0.26181862
000040 c3 76 d9 bd 77 e7 1b 3e 91 87 fc 3c 38 4d 81 3d
       -0.10618355 0.15225016 0.030826362 0.063135564
000050 97 89 6c bd f5 d6 8f 3d 5f c2 fa bc ac 8b 59 be
       -0.057748403 0.07023422 -0.030610261 -0.21244687
000060 2d b5 c7 bd 76 a4 48 3e b1 9c a0 bd 46 fa 38 3d
       -0.097513534 0.19593987 -0.078423865 0.045160554
000070 22 32 b9 bd c2 b7 57 3e 4d f3 36 3e c3 a6 77 3d
       -0.09042765 0.21066192 0.1786625 0.06046177

weight f4 [32]
000000 5b aa 85 3f d0 f5 8b 3f 24 00 b7 3f 6d 83 02 3f
       1.0442613 1.0934391 1.4296918 0.5098179
000010 7a f2 23 3f 94 30 91 3f 33 27 28 3f fb e8 b9 3f
       0.64041865 1.134295 0.65684813 1.4524225
000020 a6 85 40 3f c3 0f 77 3f 98 27 40 3f 78 78 c0 3f
       0.7520393 0.96508425 0.75060415 1.5036764
000030 fd 93 83 3f e0 7f 98 3f 5f 0e 29 3f 3d 3a da 3e
       1.0279537 1.1914024 0.66037554 0.42622557
000040 4f de 85 3f dc 1f 56 3f 89 04 af 3f 01 51 62 3f
       1.0458468 0.83642364 1.3673259 0.8840485
000050 82 8c 83 3f 9b 61 eb 3f 61 be 68 3f d1 36 64 3f
       1.0277255 1.8389162 0.90915495 0.89146143
000060 8e ad 53 3f b5 67 16 3f d6 6c 75 3f 13 21 39 3f
       0.826867 0.58751994 0.95869195 0.7231609
000070 36 cc 60 3f da e7 5a 3f 30 f9 0a 3f e8 24 55 3f
       0.878116 0.8551003 0.5428648 0.8325944

bias f4 [32]
000000 cf 11 53 be b2 da 24 bd df 3e 8c 3e f0 1e b4 be
       -0.20612262 -0.040247627 0.27391717 -0.35179853
000010 30 38 84 be 8c b4 4a be b3 1e df be 31 c4 30 3e
       -0.25824118 -0.19795436 -0.4357811 0.17262341
000020 40 7b 94 be a4 fa 16 3e 3f cc ca be 8b af dd 3e
       -0.29000282 0.1474405 -0.39608952 0.4329799
000030 f8 8f 17 be 4e 49 bc bc b7 2b 28 be 36 f8 9b be
       -0.14801013 -0.022984173 -0.16422926 -0.30462807
000040 e0 37 a2 bd 7a 2b 88 be 41 d8 9f 3e 81 74 25 3e
       -0.079208136 -0.2659567 0.31219676 0.16157724
000050 83 8d 80 3d 53 84 86 3e c5 3b 49 be a7 43 05 bf
       0.06276991 0.2627283 -0.19651707 -0.52056354
000060 ee cd 33 bc 78 f2 fb be da 35 c1 be d7 d0 dd be
       -0.01097439 -0.49208426 -0.37736398 -0.43323395
000070 d6 7a 93 3d e2 13 e3 bd 93 9b fe be b7 15 6b be
       0.072011635 -0.11087777 -0.4972807 -0.22957502

running_mean f4 [32]
000000 2a 59 2d c0 86 73 8f bf 22 3b ed 3e 94 c9 4c c0
       -2.7085671 -1.120713 0.46334177 -3.1998034
000010 0e 89 ae 3f 5b 13 5b 3e 7b c8 a6 bf cd da 30 3f
       1.3635576 0.21394102 -1.3029932 0.69083863
000020 b8 8e 17 c0 4e 98 2d 3f 86 a9 7a c0 67 c3 58 3f
       -2.3680859 0.67810524 -3.916597 0.8467316
000030 a6 f7 f0 3e 50 92 06 40 fe 9f 2b c0 ee d9 b6 bf
       0.4706394 2.1026802 -2.6816401 -1.4285257
000040 2f 5e 01 40 2e aa 21 c0 c1 19 b7 3f 32 1a fe bf
       2.0213735 -2.526012 1.4304734 -1.9851744
000050 1f ec cb bf 5d b0 61 3f e5 1a f1 bf e6 d2 cb 3e
       -1.5931433 0.88159734 -1.8836333 0.3980934
000060 dd 53 b9 bb 2e 72 6a be 81 6a 6f bf 5e 79 99 3f
       -0.0056557492 -0.22895119 -0.9352189 1.1990163
000070 37 ec 49 c0 e8 d7 0a 40 c8 67 2a bf 7d ef 18 40
       -3.1550424 2.1694279 -0.6656461 2.3896172

running_var f4 [32]
000000 36 52 81 40 c6 ec a0 3f d2 56 1b 3f d9 7a 2a 40
       4.0412855 1.2572258 0.6067935 2.663748
000010 fa 69 e9 3f c4 c5 45 3f 7f d4 c6 3f 00 89 39 3f
       1.8235466 0.7725489 1.5533599 0.7247467
000020 8c 64 24 40 a7 19 b1 3f 80 90 b5 40 0b 10 3d 3f
       2.568637 1.3835953 5.673889 0.73852605
000030 68 47 22 3f 21 c4 17 40 4b 4d 1d 40 9e 7f 6e 3f
       0.6339021 2.3713458 2.4578426 0.9316348
000040 3d 03 17 40 c3 39 4b 40 5e c5 89 3f f8 76 1f 40
       2.3595726 3.1754005 1.0763357 2.4916363
000050 de 75 f3 3f 8f dc 10 3f 4c 87 d3 3f a0 10 10 3f
       1.9020345 0.56586546 1.6525664 0.5627537
000060 8c 74 02 3f 8e d5 8b 3f cc 67 e5 3f 3b 80 bc 3f
       0.50959086 1.0924547 1.7922301 1.4726633
000070 5d e1 42 40 93 90 ef 3f f6 ce ec 3e 00 37 43 40
       3.045005 1.8715996 0.4625165 3.050232

weight f4 [64, 64]
000000 48 12 62 be 76 61 6f be e7 ad e7 3c f7 19 f3 be
       -0.22077286 -0.23377022 0.028281165 -0.47480747
000010 ba 0a d8 bd 65 ed a0 be e2 27 a7 bc 0e 6f 57 bd
       -0.10548921 -0.31431118 -0.02040476 -0.052596144
000020 65 f6 90 be f0 c2 af be 8a e3 00 bf 87 9b 33 3e
       -0.28312984 -0.34328413 -0.503472 0.17539798
000030 ff e8 8c 3d 95 10 7d be 44 4e 55 3c ad b2 ba be
       0.06880378 -0.24713357 0.013019148 -0.36464444
000040 a1 bd 27 bd 6a 53 1c 3d 8a 12 86 be e6 31 eb be
       -0.04095233 0.038165487 -0.2618602 -0.45936507
000050 aa 8e 21 be 4f 1d ac be fa 87 da bd 8d b9 c9 be
       -0.15777078 -0.3361611 -0.10670467 -0.39399377
000060 d7 3d 11 be 0f 41 a2 be 40 ea df be 72 8f c7 be
       -0.14183746 -0.3169026 -0.43733406 -0.38976628
000070 9e 32 1f be 44 8f a7 be 33 fc 80 be 0f 46 b9 bd
       -0.15546653 -0.3272649 -0.25192413 -0.09046566
000080 f2 04 d3 bd 89 a5 94 3e b1 1d a7 3d a6 3a 0e be
       -0.103036776 0.29032543 0.0815996 -0.1388956
000090 46 89 79 3d f6 6f 75 3e 87 60 a0 3d 65 5d b2 3e
       0.06092193 0.23968491 0.07830911 0.3483688
0000a0 1d 49 00 be e1 e8 97 3e f9 a9 fd bd da 71 ac 3e
       -0.1252789 0.2966986 -0.12385935 0.33680612
0000b0 32 b1 c0 3c 51 0d 61 3e 96 f1 5c be 24 43 28 3e
       0.023521993 0.21977736 -0.21576533 0.16431862
0000c0 6e bc b9 3e 33 11 52 3e e8 e0 2f 3e 2b 57 bc bd
       0.36276573 0.20514373 0.17175639 -0.091963135
0000d0 e7 dc 0f 3d 79 5f 94 3e 7f 38 ea 3d 2e 37 88 3e
       0.03512278 0.2897909 0.11436557 0.266046
0000e0 9c 18 2d 3d 97 89 72 be 3d 8a 39 be d2 5f 20 be
       0.042259797 -0.23685299 -0.1811914 -0.15661553
0000f0 b2 f7 63 bd 22 72 61 3c aa 20 66 be 37 07 32 3e
       -0.055656143 0.013760122 -0.22473398 0.17385565
000100 d6 8e 0f be 1c e8 16 be 68 81 f3 bd fc 51 3c be
       -0.14019331 -0.1473698 -0.11889917 -0.1839065
000110 19 fd 15 be e3 de 3a 3d 18 6c 22 be a1 23 12 3e
       -0.1464733 0.045622718 -0.15861547 0.14271404
000120 14 44 6e 3e b7 fa d5 3b 2a 0c 84 bd fb 7b 94 be
       0.23268157 0.0065301317 -0.064476326 -0.2900084
000130 29 7b b7 bd d1 b6 1f be 90 d9 96 bd 3b ce 4c be
       -0.08959038 -0.15597083 -0.073657155 -0.20000546
000140 35 44 71 be 77 71 80 be 39 37 3d be 89 6a 84 3e
       -0.23561175 -0.25086567 -0.18478097 0.2586253
000150 78 29 a1 bd 7f 7c 2f 3d 60 f4 10 be f5 6d 05 3e
       -0.07869238 0.042843338 -0.14155722 0.13030227
000160 5a cf e1 3e b7 aa 4f 3e 96 b1 83 3e 79 71 92 be
       0.4410351 0.20279966 0.25721425 -0.28602198
000170 1b df 6c 3e e6 42 8d 3c d6 19 86 be 56 b6 4d 3e
       0.23131983 0.017243814 -0.26191586 0.20089087
000180 07 37 f2 bd f1 87 a6 3e ef 2a b7 3e 7c f1 39 be
       -0.11826902 0.3252559 0.35774943 -0.18158525
000190 23 b5 ac bd 02 92 cf 3e 04 15 8c 3d c1 7f e7 3e
       -0.084329866 0.40541083 0.06839946 0.45214656
0001a0 32 d4 15 be ea 74 b5 3e 34 c0 d0 bd f5 cc ba 3d
       -0.14631727 0.3544076 -0.1019291 0.09121124
0001b0 47 12 cf 3e b4 40 b7 3e ee 32 0c be ea c9 b3 3e
       0.40443632 0.35791552 -0.13691303 0.35114986
0001c0 55 a5 c4 3e b3 ae 41 bd 0a 03 ca 3e f0 35 94 be
       0.38407388 -0.047285747 0.39455444 -0.289474
0001d0 a2 35 51 be 0d ba 20 3f d7 e0 ab 3c b1 8f fb 3e
       -0.20430616 0.6278389 0.020981235 0.49133065
0001e0 2f b0 42 be 08 56 99 bd 4b 64 95 be 10 96 48 3e
       -0.19012521 -0.07487112 -0.2917808 0.19588494
0001f0 0c b7 03 be 54 9a 0b 3e a5 e0 e6 bd 40 5e 88 3d
       -0.12862796 0.1363309 -0.11273316 0.06658602
000200 35 ea 74 3d 54 64 ef 3c ca 3d 9c 3d e8 7f 85 be
       0.05979367 0.029222645 0.07628973 -0.26074147
000210 cf 41 01 3e 46 b4 63 3e 96 cb 8e 3d 92 67 26 3b
       0.1262276 0.22236738 0.06972425 0.0025391323
000220 38 e5 24 bf fe 91 ec bd ba 09 8b bd b1 6e 77 3e
       -0.6441226 -0.11551283 -0.067889646 0.24163319
000230 12 1a 95 bd 45 74 b8 3e b7 53 c3 bc 84 b3 f8 3d
       -0.07280363 0.36026207 -0.02384363 0.12143615
000240 d6 a1 fe 3e 4e a1 ed 3e 1e 2e 28 3e e4 dd 89 be
       0.49732846 0.46412128 0.16423842 -0.26927102
000250 75 42 00 3e 70 d4 e8 be 54 25 5e 3e 54 69 a1 be
       0.12525351 -0.45474577 0.21693927 -0.3152567
000260 14 5c b5 be 14 f4 a1 be 02 3d e7 be dd 33 3c be
       -0.35421813 -0.3163153 -0.45163733 -0.1837916
000270 54 b2 8f be 32 48 a7 be 25 39 97 3e ab 9e 86 be
       -0.2806574 -0.32672268 0.29535785 -0.2629293
000280 61 09 99 be 44 da 70 be 69 9b 80 3b 03 5b 64 be
       -0.29889968 -0.23520762 0.0039247763 -0.22300343
000290 12 a5 56 be 6d d6 9c 3e 3e 15 87 3c 84 87 de bd
       -0.20961407 0.30632344 0.016489621 -0.10865691
0002a0 12 31 a0 3d 0c 5e 5b 3e d9 e3 3d 3b 21 8e c3 be
       0.078218594 0.21422595 0.002897492 -0.38194373
0002b0 f1 35 b8 3e a0 e0 10 bf 04 62 da 3d 62 0a e7 bc
       0.35978654 -0.5659275 0.10663226 -0.028203193
0002c0 80 29 31 3e 9a 54 89 be de c2 5d be 1b f0 4e be
       0.17300987 -0.26822358 -0.21656367 -0.2020878
0002d0 61 98 16 be ca 2e 99 be 7e 7d af be 4c f1 1f be
       -0.14706565 -0.2991851 -0.3427543 -0.15619391
0002e0 00 33 40 be 61 4f c9 bd 68 25 52 be ab df 98 be
       -0.18769455 -0.098295934 -0.20522082 -0.29858145
0002f0 0e 1c 00 be 99 b4 65 3c 88 bc 30 3e 35 83 80 be
       -0.12510702 0.014020109 0.17259419 -0.25100103
000300 8b ef 73 be 81 fd 44 be 8b 21 87 bd 7a 9e 08 be
       -0.23821847 -0.19237329 -0.06598195 -0.13341704
000310 06 1f 67 be 07 8d 6b bd 94 df 83 be aa 8d e2 bd
       -0.22570428 -0.05750754 -0.25756514 -0.110621765
000320 c7 b6 0a bf 04 73 11 be bf a4 3e bd a3 00 e7 bd
       -0.54185146 -0.14204031 -0.046543833 -0.11279418
000330 f0 8f e3 be 9d 08 8a be 1e 66 d7 bd 0a 7f 81 bc
       -0.44445753 -0.26959696 -0.10517524 -0.015807647
000340 ea ef 71 be a1 df a3 bd 90 17 03 bf 1f fb c0 3e
       -0.23626676 -0.08001638 -0.5120783 0.3769159
000350 c1 5f 08 be 99 04 3e 3d fe 39 eb be 55 21 a8 3d
       -0.13317777 0.046391103 -0.45942682 0.082094826
000360 c0 e8 06 3b 8b 54 b8 3e ac dd 02 3f 84 53 29 bc
       0.0020585507 0.36002 0.51119494 -0.010334853
000370 c2 7b bc 3e f8 55 cb bd 24 fd d3 be 6c 4d c7 3e
       0.3681317 -0.099285066 -0.41404068 0.38926256
000380 b5 48 27 be dd 3b f9 bc 05 b8 fc bd c2 b2 74 39
       -0.1633633 -0.030424053 -0.123397864 0.00023336246
000390 f0 64 80 3b bc 23 d5 be da e8 9f 3d a9 bd e3 3d
       0.0039182827 -0.41628826 0.07808085 0.11120159
0003a0 69 e5 1d 3d 6d a0 0e 3e 2c ee f9 3d 5d 41 c6 be
       0.03854886 0.13928385 0.12203631 -0.38721743
0003b0 ce 82 53 bd e4 ad cd be a8 a5 c6 3d 1d 6e bb be
       -0.051638417 -0.4017173 0.09699565 -0.36607447
0003c0 63 ee b4 bd b7 ab 19 be a9 80 14 bf 46 32 f2 bd
       -0.08834531 -0.1500691 -0.5800882 -0.11825995
0003d0 44 cc c1 be 3b 98 96 bd a0 89 d3 bd 9a 96 0c be
       -0.37851155 -0.073532544 -0.10328984 -0.13729325
0003e0 0d 5f 6f 3e 11 40 39 3e 73 3b ab bd a5 b2 1f bc
       0.23376103 0.18090846 -0.083609484 -0.009747182
0003f0 4b 54 15 be 16 f7 4d bd 71 88 88 3e 52 be 58 be
       -0.14582936 -0.050284468 0.26666597 -0.21166351

bias f4 [64]
000000 8b 63 2e 3e 80 ae 33 bd 64 dd 12 be 17 2e 72 bd
       0.1703016 -0.043867588 -0.14342266 -0.059125986
000010 93 3d d2 3d d6 6b 37 3d 20 44 95 3d 8f 57 cd bd
       0.102656506 0.044780575 0.072883844 -0.10026466
000020 81 8e a0 bd 3b 23 f8 b9 5f 32 d8 3d 2f 6a e6 bd
       -0.078396805 -0.00047328495 0.105564825 -0.11250722
000030 e3 27 06 3e bd 12 54 3c ee b2 aa bd f1 26 35 3d
       0.13101153 0.012943921 -0.083349094 0.04422659
000040 0b 80 e5 bd 21 90 89 bc 4d ef a4 3c f2 d0 5b 3d
       -0.11206063 -0.016792359 0.020133639 0.053666063
000050 b9 fc 62 3d e4 a7 9e 3d 3d b0 37 bd aa 06 89 bb
       0.055416796 0.07746866 -0.04484581 -0.0041817026
000060 62 01 23 3e 3a dd 3c bd 39 a8 1e bd 1d eb 00 bd
       0.15918496 -0.046109416 -0.03873465 -0.03147422
000070 f8 48 c7 bd b7 b5 b4 bd 1d 49 08 3e c9 78 7c 3b
       -0.097307146 -0.08823722 0.1330914 0.0038524142
000080 df dc 5c 3c 41 1f 56 3d 69 aa 64 3d 84 25 a7 3d
       0.013480394 0.0522759 0.05582658 0.081614524
000090 e2 c7 a7 3d cd f6 1a bc 09 c6 b7 3d 0f 2f a3 3d
       0.081924215 -0.009458256 0.08973319 0.0796796
0000a0 7a a5 7b 3c 6d 2b 3c 3d 95 3b 32 bd 09 a1 d2 bd
       0.015359277 0.04593985 -0.043513853 -0.10284621
0000b0 7a d8 be 3d eb 31 c4 bd 59 5b 39 bd 69 4e 17 be
       0.093186334 -0.095798336 -0.04525313 -0.14776005
0000c0 45 db c7 bd 4f 5e 97 3d d9 67 ab 3d d6 d0 b1 bd
       -0.09758619 0.07391035 0.08369417 -0.086824104
0000d0 16 27 3d bd f8 0b bc bd b6 ff fc 3c 72 64 dc 3d
       -0.046179853 -0.0918197 0.030883651 0.10761346
0000e0 35 04 6c bd 93 52 7f bd 61 c0 b9 3d c0 18 9f bd
       -0.0576212 -0.06233461 0.090698965 -0.077683926
0000f0 2c 31 4d bc 27 7c d6 bd e6 00 53 3d 5c a6 81 3d
       -0.0125239305 -0.10472899 0.05151453 0.06330559

weight f4 [64]
000000 4f 00 17 3f 66 4f 41 3f c5 6a 5d 3f 41 42 59 3f
       0.58984846 0.7551178 0.8649104 0.8486672
000010 15 9c 4d 3f d9 d1 82 3f ad 27 3f 3f 78 3b 5e 3f
       0.8031629 1.022029 0.74669915 0.8680949
000020 2a f9 3f 3f e7 34 54 3f ac 1d 1e 3f 1f 5f 15 3f
       0.7498957 0.8289322 0.61764026 0.5834827
000030 f8 62 88 3f 58 82 2b 3f e7 7c 32 3f 18 d6 68 3f
       1.0655203 0.66995764 0.69721836 0.9095168
000040 43 c9 54 3f f2 0f 85 3f df ba 13 3f 97 f8 7c 3f
       0.831196 1.0395491 0.5770702 0.9881682
000050 79 23 94 3f 1c cc 58 3f dd b1 47 3f 36 bb 61 3f
       1.1573325 0.84686446 0.7800577 0.88176286
000060 6c 3a 58 3f c4 43 31 3f df 56 9b 3e 39 42 67 3f
       0.84464145 0.6924403 0.30339715 0.9033542
000070 15 33 15 3f b4 e9 5d 3f 63 60 27 3f 8e c9 45 3f
       0.5828107 0.8668473 0.6538145 0.77260673
000080 af d5 89 3f 49 56 42 3f 3e 0c 83 3f 68 45 05 3f
       1.0768336 0.7591291 1.0238111 0.5205903
000090 0c 75 41 3f 4e 9c 40 3f e0 38 24 3f 70 00 7e 3f
       0.75569224 0.752385 0.64149284 0.9921942
0000a0 70 6e 52 3f 86 07 f4 3e 46 ed 06 3f ff 8d 0a 3f
       0.82199764 0.4766199 0.527058 0.5412292
0000b0 47 4c 42 3f 64 c3 16 3f 8c 8c 0b 3f ae 9a 04 3f
       0.7589764 0.5889189 0.5451133 0.5179852
0000c0 61 2a 04 3f 4a 7c 41 3f 42 4f 38 3f 74 71 3f 3f
       0.51627165 0.75580275 0.7199594 0.7478249
0000d0 ec a4 85 3f 46 a7 2d 3f c3 2a 49 3f 32 0e 31 3f
       1.0440955 0.67833364 0.78580874 0.69162285
0000e0 db 32 1d 3f 0b 58 1f 3f 07 bf 7c 3f 3c 5b 3a 3f
       0.61405724 0.6224372 0.98728985 0.7279546
0000f0 ed aa b7 3e 83 a2 45 3f ba 97 d0 3e 36 ff d4 3e
       0.35872594 0.772011 0.40740758 0.4160096

bias f4 [64]
000000 f2 17 dd be ee 5b 1a be c1 d3 3c 3c 5e a7 b6 bd
       -0.4318233 -0.15074131 0.011525095 -0.089186415
000010 af d0 e5 bd 20 4e ae bd 1a a3 81 bd 84 5a b4 3d
       -0.11221444 -0.08510995 -0.06329937 0.08806327
000020 0d 60 b0 be b7 bc d5 3d f2 ac 88 be f2 f1 49 be
       -0.3444828 0.10436385 -0.26694447 -0.19721201
000030 ca 77 77 3e 90 cd 9e be 3c 52 78 be b5 eb 0b bd
       0.2416679 -0.31016207 -0.2425012 -0.034160335
000040 08 0d 18 be d2 17 0c 3e 06 e6 8d be 71 84 07 3e
       -0.14848721 0.13680962 -0.27714556 0.13234116
000050 3f 62 8c 3e f1 c4 c1 3d 3a 77 be bc 7e 75 36 be
       0.27418706 0.09461392 -0.023250211 -0.17818257
000060 da b2 91 bd 1a 0b 06 be e9 5b 18 bf 58 0f 4b be
       -0.07114191 -0.13090172 -0.59515244 -0.19830072
000070 f5 23 b2 be ec eb 6a be 29 a1 c3 be fc ba fd 3a
       -0.34793058 -0.2294156 -0.38208893 0.0019358094
000080 55 89 77 3e 99 3d eb bd df 70 a3 bd e6 50 b3 be
       0.24173482 -0.11486358 -0.07980513 -0.35022658
000090 6c f0 82 be cd 8c 6f be 86 bb ad be 95 88 ff 3d
       -0.25574052 -0.23393555 -0.33932132 0.12477223
0000a0 c6 b4 75 bd 94 6a bb be 9a 62 b3 be 3d 41 ac be
       -0.059986852 -0.3660475 -0.35036165 -0.33643523
0000b0 dc d9 4a be 48 43 b2 be 97 db d9 be 70 2b ca be
       -0.1980967 -0.34816957 -0.42550346 -0.39486265
0000c0 7e cc 9c bd 76 36 e9 bd 51 67 4b be b8 7f a6 be
       -0.07656191 -0.11387341 -0.19863631 -0.32519317
0000d0 19 2e 78 3e 10 57 a7 be 3a 1b 86 be d0 7e 38 be
       0.24236335 -0.3268361 -0.26192647 -0.18017125
0000e0 46 e3 a7 be b7 80 d0 bd bf 87 77 3d 2f 96 e8 be
       -0.32790583 -0.101808004 0.060432192 -0.4542708
0000f0 84 c2 1f bf 05 8b dc bd 7e d7 0c bf de 14 a2 be
       -0.6240618 -0.10768703 -0.55016315 -0.31656545

running_mean f4 [64]
000000 06 54 df c0 89 d8 fe bf 95 74 62 c0 cc b3 26 c1
       -6.979007 -1.9909831 -3.5383656 -10.418896
000010 8d f3 bd 40 20 a9 6c 40 3a 34 fd 40 c4 f8 88 c0
       5.9359803 3.6978226 7.9126253 -4.280367
000020 a4 52 ab 3e 3b b7 ed 40 14 7b b3 c0 1f e5 e0 40
       0.33461487 7.428617 -5.608774 7.027969
000030 30 d6 cd bf 09 17 b6 c0 5a 59 0c 40 bf 89 6c c0
       -1.608099 -5.690312 2.1929536 -3.6959074
000040 89 b9 e0 c0 75 60 c7 bf 72 84 be c0 11 2e 13 c0
       -7.0226483 -1.5576311 -5.9536676 -2.2996867
000050 29 bb 2b c0 86 0c 6f 3f 56 84 db 40 d7 4a 18 c0
       -2.6832983 0.93378484 6.8599043 -2.3795679
000060 85 86 fc c0 07 f4 e8 c0 10 e3 44 bf 45 c4 07 40
       -7.891421 -7.2797885 -0.7690897 2.1213543
000070 8e e5 60 3f 66 53 d1 40 5e 78 28 bd 25 a7 1c c1
       0.8785027 6.5414305 -0.041130416 -9.790807
000080 5f 22 08 41 59 ef 51 c0 f6 90 4e 40 05 45 0c 41
       8.508391 -3.2802336 3.2275977 8.76685
000090 31 09 80 bf 73 88 d0 3f 23 9b e4 c0 8a 5b 87 bf
       -1.0002805 1.6291641 -7.1439376 -1.057481
0000a0 6c 75 32 40 dc 88 ed bd 6c 53 94 40 53 b3 08 c1
       2.7884169 -0.115983695 4.6351833 -8.54378
0000b0 90 9a c1 40 cd 4b 88 3f 93 82 7f c0 e7 5d bb bf
       6.0501175 1.0648133 -3.9923446 -1.4638032
0000c0 eb 19 dc c0 6a c7 9e c0 e5 f4 16 40 ca 47 87 3e
       -6.878164 -4.9618425 2.3586972 0.26421958
0000d0 2f dd e6 3f c7 08 40 c0 c2 2a e8 be f1 5a f5 c0
       1.803625 -3.0005357 -0.45345122 -7.6673512
0000e0 b5 b8 54 40 27 93 84 c0 a0 20 8f 40 43 cf 23 40
       3.3237736 -4.142963 4.4727325 2.5595253
0000f0 2c 7b 50 3d 4f 1a 93 bf cc 10 ab c0 1e 9b b9 3f
       0.050898716 -1.1492404 -5.3458004 1.4500463

running_var f4 [64]
000000 0b 00 d7 40 fa 24 3b 41 d9 89 0f 41 76 13 5a 41
       6.7187552 11.6965275 8.971154 13.629751
000010 66 fe 55 41 46 1f 7f 41 4b d1 8a 41 f4 43 b8 40
       13.374609 15.945135 17.352194 5.758295
000020 eb 9d cb 40 19 8d 13 41 a8 21 8f 40 71 0f 36 41
       6.363027 9.221948 4.4728584 11.37877
000030 1e ab 06 41 65 06 ec 40 59 87 4e 41 d6 eb 34 41
       8.416777 7.3757806 12.908044 11.307577
000040 8b 6b fe 40 47 7b 02 41 11 9d 7c 40 d1 cc e0 40
       7.950628 8.155097 3.9470866 7.025002
000050 2a d1 24 41 15 a6 1a 41 50 12 c3 40 3b 76 b7 40
       10.301065 9.665547 6.0959854 5.7331824
000060 f2 73 24 41 85 b0 b5 40 15 d0 a4 40 ca e1 71 41
       10.278307 5.677798 5.1504006 15.117624
000070 03 e8 13 41 68 91 2b 41 4d d9 fb 40 85 d5 e8 40
       9.2441435 10.723 7.870276 7.2760644
000080 f5 09 89 41 96 69 ed 40 80 9a 75 41 96 47 55 41
       17.129862 7.419139 15.35022 13.329977
000090 85 40 92 41 76 e2 66 41 e2 8f c0 40 e5 2c 3b 41
       18.281504 14.430288 6.017564 11.698461
0000a0 8b 26 19 41 a2 7c 79 40 74 6d b3 40 0f 26 30 41
       9.57191 3.898232 5.607111 11.009292
0000b0 0d 60 9c 41 db 71 c4 40 75 d1 96 40 5b ad 50 40
       19.5469 6.1388984 4.7130685 3.2605808
0000c0 d4 6b fa 40 b8 4f 2e 41 78 f3 22 41 60 85 36 41
       7.8256626 10.894463 10.184441 11.407562
0000d0 32 a8 4a 41 b4 05 05 41 e4 86 35 41 a0 d2 9f 41
       12.666063 8.313892 11.345432 19.977844
0000e0 17 9e f5 40 18 b0 cc 40 0c e6 94 41 e1 7a 36 41
       7.675548 6.396496 18.612328 11.405
0000f0 fe 02 d8 40 43 dc 49 41 b7 a7 ba 40 13 db f1 40
       6.7503653 12.616275 5.832973 7.5579925

weight f4 [3, 64]
000000 b8 7d 5a bd f9 41 a1 3d c6 ef 25 3e 18 4c c1 3d
       -0.05334255 0.078739114 0.16204748 0.09438342
000010 ba 41 22 be f0 e0 88 3e 21 a4 ba 3d 50 37 c7 3d
       -0.15845385 0.26734114 0.09113336 0.09727347
000020 5a d0 e3 bd 42 f2 66 3e 7e dc 16 3d c2 65 a5 3d
       -0.11123724 0.22553352 0.03683137 0.080760494
000030 93 71 89 3e 2e b8 85 bc d0 4d 5d be b3 fb ac 3d
       0.26844463 -0.016323175 -0.21611714 0.08446445
000040 1e 4b 43 3d 53 ac 7f 3e 8a 2f 20 bb e5 5a 51 bd
       0.04767906 0.2496808 -0.0024442398 -0.051112074
000050 81 b8 be 3e 68 26 37 3e f3 f0 c0 bc 38 c9 2b 3e
       0.3725014 0.17885745 -0.023552394 0.16775978
000060 94 c2 dd 3d b5 59 05 3e 26 77 3d 3d 9e e7 38 3e
       0.108281285 0.13022502 0.046256207 0.18057105
000070 4d d6 a5 bc d3 5b 5e 3e 11 bf 90 bc e1 c2 d3 3c
       -0.020243788 0.21714716 -0.017669233 0.025849761
000080 19 10 0c 3e 43 b9 a3 3d 3c 8b 0d 3e 1d d5 b2 3c
       0.13678016 0.0799432 0.13822645 0.021830136
000090 b8 e0 14 be 93 a4 fa bd 8a fe 0b bc 55 99 e5 3d
       -0.14538848 -0.12238421 -0.008544574 0.112108864
0000a0 dc 5a 15 3e f1 46 2e bd a4 80 6e 3d 48 6f 18 3d
       0.14585441 -0.042548124 0.05822815 0.0372155
0000b0 f3 2d 1a be 67 9a 9d 3d 07 f6 20 3d c1 77 21 3c
       -0.1505659 0.076954655 0.03929713 0.009855212
0000c0 68 a9 4a 3d 79 54 6b 3d 77 98 f3 bc 93 4c 2c be
       0.049477965 0.057453606 -0.029735787 -0.16826086
0000d0 fb a7 5a 3e d3 81 81 bd cf ef 00 3e bd a5 0c be
       0.21353142 -0.0632359 0.1259148 -0.13735099
0000e0 bc af 8a bd fc 6e 48 3d fe dc f3 3d 47 7d 9d 3d
       -0.067718 0.048933968 0.11907385 0.076899104
0000f0 bf d3 b6 bd aa 97 d4 3c d3 d0 e0 bd e3 0d 8a 3d
       -0.08927106 0.025951225 -0.1097733 0.0674093
000100 fa 3f ce bb 0a 0d 77 3e 16 48 b6 3d fc 2b 64 bd
       -0.0062942477 0.24126068 0.08900468 -0.05570601
000110 43 62 10 3e 15 f3 2c be fb 4b d1 3d a3 75 c2 3d
       0.14099984 -0.16889603 0.1021957 0.09495094
000120 41 8e cd 3d 85 e8 d8 bd 41 a0 29 bd 0f 1c 51 3d
       0.100368984 -0.105912246 -0.041412596 0.05105215
000130 96 e2 e7 bd af 5e 04 3d ba 47 16 3e 15 c2 91 bd
       -0.11322515 0.03231686 0.14675799 -0.07117096
000140 28 06 1d 3c 24 ac 1f be bb 76 b5 bb fc 0f 08 3e
       0.009583987 -0.1559301 -0.0055378354 0.13287348
000150 4e 26 80 be d7 d6 19 be 46 a1 bf 3d 58 5d 0a be
       -0.25029224 -0.15023361 0.09356932 -0.1351217
000160 9a fa 48 bd 44 dd c9 bd 84 a3 50 bb 52 e2 a4 bd
       -0.049067117 -0.09856656 -0.0031835744 -0.0805098
000170 50 69 f0 3d 70 ff 08 be a2 fe 21 3e 69 58 3e be
       0.11738837 -0.13378692 0.15819791 -0.18588413
000180 b3 ef d6 bd 4e 90 10 bd ec cd e2 bc 7f 6e 2c bd
       -0.10494938 -0.03529387 -0.027686082 -0.042097565
000190 10 22 ed 3d 67 be 99 bc 70 1c b7 bd a5 38 a1 bd
       0.115787625 -0.018767549 -0.08940971 -0.07872132
0001a0 67 51 0e 3d 3b 1e 99 bd 66 eb 63 bd c0 27 d3 3c
       0.0347456 -0.07476469 -0.055644415 0.02577579
0001b0 85 53 cc 3d 05 b9 cf 3d 6e ac a5 3d 2b 32 1d bd
       0.099768676 0.101427115 0.08089529 -0.038377922
0001c0 57 96 dd bc 68 ba fe bd 2b c1 50 3e d7 30 23 bd
       -0.027049227 -0.12437898 0.20386188 -0.0398415
0001d0 5f 19 41 bd 58 95 9b 3d c2 89 58 3d 0c 5d 8c bc
       -0.047143336 0.075968444 0.05286575 -0.017134212
0001e0 3c 9a 1e 3d 96 39 1f 3c ab 55 fc 3d 1e 28 89 bd
       0.038721308 0.009718319 0.12321027 -0.06697105
0001f0 40 ec be bd 18 5e 3c bd 35 b5 0b bd bb 40 cb 3d
       -0.09322405 -0.045988172 -0.03410836 0.09924456
000200 6a 38 18 bd 86 3d 21 be 24 7d 74 bd a3 b0 80 be
       -0.037163176 -0.15746126 -0.059689656 -0.25134763
000210 08 8b bf 3c 94 75 8e be c2 72 4f be 52 3b c3 be
       0.023381725 -0.2782408 -0.2025862 -0.38131195
000220 40 38 66 be 7a 36 bb bb 2a 50 3e be bc 56 28 be
       -0.22482395 -0.005713281 -0.18585268 -0.16439337
000230 d2 c6 45 bd c0 bd 71 be 84 d8 0d be 20 fe 6b be
       -0.048285313 -0.2360754 -0.13852125 -0.2304616
000240 7f 68 0e be 7a e5 26 be 40 70 28 be 28 d0 fd be
       -0.1390705 -0.16298476 -0.1644907 -0.49572873
000250 e0 4e e6 be c7 c4 9f bd ea a1 89 be 77 30 a8 be
       -0.44982052 -0.07801204 -0.26881343 -0.32849476
000260 11 e7 37 be 23 46 b4 3d e5 ab 8b bc 07 23 bb bd
       -0.17959239 0.0880244 -0.01704974 -0.0913754
000270 8a fa 41 3d cb 55 76 3d 9e 78 12 be ab 0f 3c be
       0.047358073 0.060140412 -0.14303824 -0.18365352
000280 9c 44 e6 be c8 d5 91 be f4 1e a1 be ff e4 35 be
       -0.4497422 -0.28483415 -0.31468928 -0.17763136
000290 b0 6c f2 3d 99 01 0f 3e 44 43 04 be db da b4 be
       0.11837137 0.13965453 -0.12916285 -0.35323223
0002a0 93 ec e8 bd 57 90 a0 3d a6 ee 29 3c 75 f5 cd 3d
       -0.11373248 0.07840031 0.01037184 0.10056583
0002b0 ed e7 5e 3d 81 65 35 be 31 23 e9 bd 60 d9 8c bb
       0.0544204 -0.17714502 -0.11383665 -0.004298374
0002c0 a2 b0 24 be e9 47 51 be 45 83 63 bd 47 72 eb 3d
       -0.16083005 -0.20437588 -0.05554511 0.11496406
0002d0 f3 a3 ce be 6d 6d 6b be 47 ff 0a be 4b d4 d7 3d
       -0.40359458 -0.22990961 -0.13573943 0.105385385
0002e0 e0 60 bb bd 4c 60 1e 3d 75 90 c2 be 8b e1 fe bd
       -0.09149337 0.038666055 -0.38000837 -0.12445363
0002f0 25 f6 9e bd b1 1a 7c be a1 ab 90 bd 23 b3 0f be
       -0.07761792 -0.24619557 -0.070639856 -0.14033179

bias f4 [3]
000000 94 71 1a 3e af e2 e0 3d 61 93 cd be
       0.15082389 0.109807365 -0.40151504
