1_FCNN_1/fcnn_1_model.pth (torch, 9021 bytes, 8 tensors)

weight f4 [32, 20]
0	0xbd9fe1ff	-0.07806777
1	0x3e276051	0.16345336
2	0xbd60e556	-0.05490621
3	0x3e9ac304	0.3022691
4	0x3e4251cf	0.1897652
5	0x3e2aefb8	0.16693008
6	0xbe2f8ee6	-0.17144355
7	0xbcfe1642	-0.031016473
8	0x3d0563c9	0.032565866
9	0xbef262cf	-0.4734101
10	0x3e3ee4f7	0.1864203
11	0xbd543c40	-0.05181527
12	0x3e33c6cc	0.17556304
13	0xbd8cd9ea	-0.06877501
14	0x3e21ee35	0.15813525
15	0xbda90037	-0.08251994
16	0x3e67a815	0.22622712
17	0xbb27db84	-0.002561302
18	0xbe1e9cab	-0.15489452
19	0x3e83bea5	0.25731388
20	0xbe16ab5f	-0.1471381
21	0x3e276835	0.16348346
22	0xbd2db0b0	-0.04240483
23	0x3e59dc18	0.21275365
24	0xbdd81343	-0.10550549
25	0x3d049b3d	0.03237461
26	0xbe023074	-0.12713796
27	0xbe70795c	-0.23483795
28	0x3d77bcbf	0.060482737
29	0xbef59511	-0.4796529
30	0x3e869a45	0.26289573
31	0xbd4a9114	-0.049454764
32	0x3dc90cd5	0.09816901
33	0xbd982c17	-0.074302845
34	0xbddc1309	-0.10745818
35	0xbc4500d1	-0.01202412
36	0x3dffb307	0.12485319
37	0x3def9df4	0.11700049
38	0xbc8ceab3	-0.017201757
39	0x3e14d56b	0.14534537
40	0x3e0b33c4	0.13593966
41	0xbdc6b0cb	-0.09701689
42	0x3defe3f0	0.117133975
43	0x3e08605e	0.13318011
44	0x3dcdb758	0.10044736
45	0xbe112989	-0.14176
46	0x3e71959a	0.23592225
47	0x3df4eeb4	0.119595915
48	0xbccd214c	-0.025040291
49	0x3e00e5ff	0.12587737
50	0xbe9082c0	-0.28224754
51	0xbe799da4	-0.24376541
52	0x3cb03ecb	0.021514317
53	0x3ebe7f00	0.37206268
54	0x3d9e645d	0.077339865
55	0x3ddcb9cb	0.10777625
56	0x3c874bac	0.016515575
57	0x3cff4d4e	0.031164791
58	0x3e6d583d	0.23178191
59	0xbecb5755	-0.39715067
60	0xbc7684fb	-0.015046353
61	0xbe448d96	-0.19194636
62	0x3d4da6b3	0.050207805
63	0xbe172425	-0.14759882
64	0xbd0abe05	-0.033872623
65	0xbdbd0d9d	-0.09231112
66	0x3e3136ed	0.17306109
67	0xbd7667fe	-0.06015777
68	0xbbe8db4c	-0.0071062203
69	0xbe0245cc	-0.12721938
70	0x3e07e55c	0.13271087
71	0x3d8a3570	0.06748474
72	0x3e864d59	0.26230887
73	0xbddfed3d	-0.109339215
74	0xbe9d4ea3	-0.30724058
75	0xbd96f747	-0.07371383
76	0x3b9c731e	0.004774465
77	0xbd951001	-0.07278443
78	0x3e17923a	0.14801875
79	0x3e72f4f2	0.23726252
80	0xbe84080e	-0.25787395
81	0xbdca6f07	-0.09884458
82	0x3c177966	0.009245252
83	0xbdf3c104	-0.11902049
84	0x3d5b2b2f	0.05350798
85	0xbe5bf3d7	-0.21479736
86	0x3d95a4a5	0.07306794
87	0xbe41c00b	-0.18920915
88	0x3ddb31e8	0.10702878
89	0x3dde8b46	0.10866408
90	0xbb153950	-0.0022769757
91	0xbe196cb7	-0.14982878
92	0x3e145ef3	0.14489345
93	0x3e8e4074	0.2778355
94	0xbe7d858e	-0.24757978
95	0x3ab14d5b	0.0013527082
96	0x3dcd8991	0.10036004
97	0xbc5f7180	-0.0136379
98	0x3dc83f95	0.09777752
99	0xbe28d384	-0.16486937
100	0xbd6c9d49	-0.057767186
101	0x3d83cbcb	0.06435355
102	0x3d333be3	0.043758284
103	0xbce22c5c	-0.027609043
104	0x3e0385e9	0.12844051
105	0xbdd1d9af	-0.10246598
106	0xbe06a0ac	-0.13147229
107	0xbda93585	-0.08262161
108	0xbeb49bb2	-0.35275036
109	0xbd82382b	-0.063583694
110	0x3eb77188	0.35828805
111	0xbbcb144f	-0.0061974893
112	0x3cb37cb5	0.02191005
113	0xbf17840f	-0.5918588
114	0xbe6f33ab	-0.23359554
115	0xbe9ba8dd	-0.3040227
116	0x3dfddef5	0.12396041
117	0xbe81062f	-0.2520003
118	0xbe6076be	-0.21920297
119	0xbdf300b7	-0.11865371
120	0x3d2e4f1b	0.04255591
121	0xbd4dce3e	-0.050245516
122	0x3d12387b	0.035698395
123	0xbe8893b2	-0.26675183
124	0xbd0ced46	-0.03440597
125	0x3bbc086b	0.005738308
126	0xbc35bd09	-0.011092433
127	0xbe9b6973	-0.3035389
128	0x3cd2f039	0.025749313
129	0xbdf5bacf	-0.119985215
130	0x3e575596	0.21028742
131	0x3e0c92b3	0.13727836
132	0xbe31e1fc	-0.17371362
133	0xbe436e31	-0.19085003
134	0xbd1ec33b	-0.038760405
135	0xbe37403c	-0.17895597
136	0xbe140df6	-0.1445845
137	0xbe1e682f	-0.1546943
138	0xbdd85f14	-0.1056501
139	0xbc628389	-0.013825306
140	0x3ddf5f4c	0.10906848
141	0xbe4a7f9c	-0.19775242
142	0x3e5c8604	0.21535498
143	0xbdbf5424	-0.093422204
144	0x3e07eb21	0.13273288
145	0x3ea76fae	0.32702392
146	0x3e44eab4	0.19230157
147	0x3db57cf5	0.08861724
148	0x3cf69736	0.0301014
149	0xbec14db5	-0.37754598
150	0x3d7438c9	0.059624467
151	0xbd8bcb71	-0.06825913
152	0xbc4a8868	-0.012361623
153	0xbf0cf2f3	-0.5505821
154	0x3e0a789e	0.13522574
155	0xbeb8f4e3	-0.36124334
156	0x3da5dcca	0.08098753
157	0x3e5c2bd9	0.21501102
158	0xbdd5a739	-0.10432286
159	0xbdd0d919	-0.10197658
160	0x3ddfbb2f	0.10924374
161	0xbd4f4de7	-0.050611403
162	0x3e87dda3	0.26536283
163	0xbe71ea06	-0.23624429
164	0xbd7c5def	-0.06161302
165	0xbc668a2d	-0.01407103
166	0xbe7ceb34	-0.24699098
167	0x3ea2a897	0.3176925
168	0xbd36b9ca	-0.044610776
169	0xbdc1e07c	-0.09466645
170	0x3d69d158	0.05708441
171	0x3e3a1993	0.18173818
172	0x3d95090a	0.07277115
173	0xbbe4bf47	-0.00698081
174	0xbbf1fe40	-0.0073850453
175	0xbd977536	-0.07395403
176	0x3d5fc5d2	0.054632016
177	0xbded4e2a	-0.11587174
178	0x3bc44950	0.005990185
179	0xbe83deff	-0.2575607
180	0xbc73ad3b	-0.014872844
181	0x3e1afe10	0.1513598
182	0xbcadf7d7	-0.021236343
183	0xbdcfd468	-0.10147935
184	0xbd601256	-0.054704987
185	0x3e1ce391	0.15321185
186	0x3c549b71	0.012976513
187	0xbd3923bf	-0.045200106
188	0x3e0e5eb7	0.13903318
189	0x3dcf231c	0.101141185
190	0xbd7d1442	-0.061786897
191	0xbe0d7cc3	-0.13817124
192	0x3e29accc	0.16569823
193	0x3ea70d7e	0.3262748
194	0xbcebca0a	-0.028782863
195	0x3d8bc3ea	0.06824477
196	0x3a7795f2	0.0009444646
197	0xbdebb2bd	-0.11508701
198	0x3e4a4bbd	0.19755454
199	0x3e64d734	0.22347718
200	0xbd78379d	-0.060599912
201	0xbd689282	-0.056780346
202	0x3e92b242	0.28651625
203	0x3cbf29b7	0.02333532
204	0x3da250a4	0.07925537
205	0xbe86ef02	-0.26354223
206	0xbe834c8f	-0.25644347
207	0xbe4fc540	-0.20290089
208	0xbe5d3368	-0.21601641
209	0x3ebd7eda	0.37010843
210	0x3e4c2808	0.19937146
211	0x3c8db65e	0.017298874
212	0xbdb39198	-0.08768004
213	0xbe29afee	-0.16571018
214	0x3d011e75	0.031523187
215	0x3e7771ca	0.24164501
216	0x3d8447c7	0.06459003
217	0xbca8afec	-0.020591699
218	0xbd9518df	-0.072801344
219	0xbe5f1087	-0.21783648
220	0xbd8aecc1	-0.067834385
221	0x3dcc7fbd	0.09985302
222	0x3d77a39e	0.060458772
223	0xbc784e56	-0.0151553955
224	0xbe8bd04b	-0.27307352
225	0x3e41b460	0.18916464
226	0x3e1ebe62	0.15502313
227	0x3e01afaf	0.12664674
228	0xbea5fd54	-0.32419837
229	0xbe884725	-0.2661678
230	0xbe126643	-0.14296822
231	0x3e6a667e	0.2289066
232	0x3e575504	0.21028525
233	0x3e157046	0.1459361
234	0x3e37b00a	0.17938247
235	0xbd782d79	-0.06059024
236	0x3e5eed79	0.21770276
237	0xbecb5059	-0.39709738
238	0xbeae1d67	-0.34006807
239	0xbe91afd9	-0.28454474
240	0x3d158484	0.03650333
241	0xbdbb8953	-0.09157052
242	0x3d20fa5c	0.03930126
243	0x3c20ebec	0.009821873
244	0xbb9f3ee4	-0.004859792
245	0xbdeaf46b	-0.114724
246	0xbdcb630f	-0.09931003
247	0x3e5a8028	0.2133795
248	0xbe61e5a4	-0.22060257
249	0x3e49b0d4	0.19696361
250	0x3d4cdca9	0.050015125
251	0xbe2cc8b5	-0.16873439
252	0xbd780e2b	-0.060560387
253	0xbea5a4c3	-0.32352266
254	0xbdc93679	-0.09824843
255	0xbeda056e	-0.42582268

bias f4 [32]
0	0x3d23041f	0.039798852
1	0xbe4968c3	-0.1966887
2	0x3e3da92a	0.18521562
3	0x3de6eb81	0.112753876
4	0xbe518e96	-0.20464548
5	0xbde9bd8e	-0.11413108
6	0x3dc694d4	0.096963555
7	0xbd22c094	-0.039734438
8	0xbd21d3da	-0.039508678
9	0xbdf7ff75	-0.121092714
10	0x3e53b551	0.20674635
11	0xbdcf47f4	-0.10121146
12	0x3e3d8e28	0.1851126
13	0xbd38005e	-0.044922225
14	0x3c6b8e6f	0.0143772205
15	0x3e25ccb7	0.16191374
16	0xbd9aadbe	-0.0755267
17	0xbe0385a7	-0.12843953
18	0xbd455fe1	-0.04818714
19	0x3e633bf8	0.22190845
20	0xbe2dd428	-0.16975462
21	0x3d830c7f	0.06398868
22	0xbe4ee4ee	-0.20204517
23	0x3e0fa43f	0.14027499
24	0x3daf78ef	0.08567988
25	0xbb8ea06e	-0.004352621
26	0x3d78b22b	0.06071679
27	0xbd62adee	-0.055341654
28	0x3df55f0b	0.11981019
29	0xbe1f8401	-0.15577699
30	0xbcbe30f5	-0.023216704
31	0x3de6cdd3	0.112697266

weight f4 [32]
0	0x3f9c8d3f	1.2230605
1	0x3f9272e7	1.1441315
2	0x3f7d6c58	0.98993444
3	0x3f6b99c3	0.92031497
4	0x3f6132a7	0.87967914
5	0x3f998f8b	1.1996931
6	0x3f65f33f	0.8982429
7	0x3f65a3fd	0.8970335
8	0x3f95acab	1.1693319
9	0x3f7e6f07	0.99388164
10	0x3f7502e2	0.95707524
11	0x3f9838d8	1.1892347
12	0x3f98911a	1.1919281
13	0x3f6c70e4	0.9235976
14	0x3f65cc09	0.8976446
15	0x3f6e149a	0.93000185
16	0x3f8c0cc6	1.0941398
17	0x3f938712	1.1525595
18	0x3f7982db	0.97465295
19	0x3fa0836b	1.2540106
20	0x3f8e3d89	1.1112529
21	0x3f9c84d0	1.2228031
22	0x3fa392a8	1.2779131
23	0x3f68d504	0.90950036
24	0x3f91e642	1.1398394
25	0x3f945889	1.1589519
26	0x3f9604e6	1.1720245
27	0x3f932911	1.1496907
28	0x3f91434e	1.1348665
29	0x3f7c3469	0.9851747
30	0x3f74e9d7	0.9566931
31	0x3f9343ae	1.1505029

bias f4 [32]
0	0x3e884bfe	0.26620477
1	0x3e516839	0.20449914
2	0xbd4c26bd	-0.04984163
3	0xbd68471e	-0.056708448
4	0xbe08a4a5	-0.13344057
5	0x3e6d1f8c	0.23156565
6	0xbda6c5d9	-0.08143205
7	0xbe0e2dea	-0.13884702
8	0x3e450666	0.19240722
9	0xbd94d391	-0.072669156
10	0xbcda97ec	-0.02668377
11	0x3e5aceea	0.21367994
12	0x3e650e6f	0.22368787
13	0xbdd8518f	-0.10562431
14	0xbda57d21	-0.08080507
15	0xbd9074ee	-0.070535526
16	0x3deaffe0	0.114745855
17	0x3e42b25b	0.1901335
18	0x3b465b82	0.0030266945
19	0x3e845bb8	0.25851226
20	0x3e46c6b9	0.19411744
21	0x3e844bd0	0.2583909
22	0x3e85abe2	0.261077
23	0xbdd9be40	-0.106319904
24	0x3da210ee	0.07913385
25	0x3e462053	0.19348268
26	0x3e417acb	0.18894498
27	0x3e02585e	0.12729022
28	0x3e1b2938	0.15152442
29	0xbd492972	-0.04911179
30	0x3d0c2011	0.03421027
31	0x3e4a3bbe	0.19749352

running_mean f4 [32]
0	0x404506d6	3.0785422
1	0x3fda4396	1.7051876
2	0x3faa118c	1.3286605
3	0xbf9c3117	-1.2202481
4	0xbfb2ff0f	-1.3984088
5	0xbed2ba2d	-0.41157666
6	0xc019a1da	-2.4005036
7	0xbf1e848f	-0.6192102
8	0xbff4d34e	-1.9126985
9	0xbf86eea3	-1.0541576
10	0x3eba13f1	0.3634334
11	0xbef53ff5	-0.47900358
12	0x3e4d4f65	0.20049818
13	0xbfb41c50	-1.407114
14	0xbf6da168	-0.9282441
15	0x3e8dada7	0.2767155
16	0x3eb7e560	0.35917187
17	0xbfa75ab6	-1.3074558
18	0x3f714698	0.9424834
19	0x3fcb25f8	1.5870962
20	0x3f0f0e32	0.55881035
21	0x3f4da062	0.8032285
22	0x3e0477b1	0.12936284
23	0xbf2e160a	-0.6800238
24	0x3f01945e	0.50617015
25	0x3f9b5bc6	1.2137382
26	0x3ecb2b5f	0.39681527
27	0x3ec5aa80	0.38606644
28	0xc020f7fb	-2.5151355
29	0x3fe25d29	1.768468
30	0xbfc5b1dc	-1.5444903
31	0xbfad6543	-1.3546528

running_var f4 [32]
0	0x400c63b1	2.1935847
1	0x3f95d63d	1.1706005
2	0x3f01426b	0.5049197
3	0x3f119549	0.56868416
4	0x3eb8fe55	0.3613154
5	0x3e57180e	0.2100527
6	0x3fd9c447	1.7013024
7	0x3ec2c286	0.38039035
8	0x3fe12b3c	1.7591319
9	0x3e5444e0	0.20729399
10	0x3e127f9c	0.14306492
11	0x3ebee26f	0.3728213
12	0x3e15e047	0.14636336
13	0x3f0a5ca2	0.54047596
14	0x3e5de161	0.21668006
15	0x3e0eb84a	0.13937488
16	0x3e6b7dad	0.2299716
17	0x3f0835fe	0.53207386
18	0x3f016760	0.5054836
19	0x3f74c07d	0.95606214
20	0x3f0c71d6	0.548612
21	0x3e837170	0.25672483
22	0x3e22cee8	0.15899241
23	0x3e59f14e	0.21283457
24	0x3df156de	0.11784147
25	0x3f01fe09	0.5077825
26	0x3e00ec53	0.1259015
27	0x3d7e19d4	0.06203635
28	0x3ff168a2	1.8860056
29	0x3f8b8dd5	1.0902659
30	0x3f4f66c4	0.8101618
31	0x3eed557c	0.46354282

weight f4 [3, 32]
0	0x3e970196	0.29493397
1	0x3e47976b	0.19491355
2	0xbd667ba4	-0.056270257
3	0x3e29cdfa	0.1658248
4	0x3d82c2ba	0.063847974
5	0x3da9c638	0.0828976
6	0xbd45fd0f	-0.04833704
7	0x3d8609d1	0.06544841
8	0x3e6dc473	0.2321947
9	0x3ddd5c78	0.10808653
10	0x3d5dfcea	0.054196276
11	0x3e7c85fe	0.24660489
12	0x3d49049a	0.049076654
13	0x3e7bb9b2	0.24582556
14	0xbd6f9074	-0.05848737
15	0x3b9428e7	0.0045214775
16	0xbd427851	-0.047478024
17	0x3cba8323	0.022767609
18	0x3e2a85ef	0.16652654
19	0x3e8fa93b	0.280588
20	0x3d952c44	0.072838336
21	0x3e97cba6	0.2964756
22	0x3e3777bd	0.1791677
23	0x3e5f08c6	0.2178069
24	0x3e8b4cd2	0.27207047
25	0x3e8adca6	0.27121466
26	0x3b5fa64c	0.003412622
27	0x3e946058	0.28979754
28	0x3e478aa9	0.19486488
29	0x3c11dd2f	0.008902832
30	0x3d130348	0.0358918
31	0xbd692613	-0.056921076
32	0x3e171032	0.14752272
33	0xbd0b9cb0	-0.034084976
34	0x3e5f0753	0.21780138
35	0x3e3c4011	0.18383814
36	0xbcfeebe2	-0.031118337
37	0x3e40acd0	0.18815923
38	0x3dba886d	0.091080524
39	0x3e45483b	0.19265835
40	0x3e52ff83	0.20605282
41	0xbd8bde31	-0.06829489
42	0x3e8ad788	0.27117562
43	0x3e6de72c	0.23232716
44	0x3e56855f	0.20949315
45	0xbd8b9bff	-0.06816863
46	0x3d526c3c	0.05137275
47	0x3db0c2b5	0.086308874
48	0x3da1f214	0.07907501
49	0x3e6e5836	0.23275837
50	0x3e550e65	0.20806272
51	0x3e8a794b	0.27045664
52	0x3dc15d13	0.094415806
53	0x3e31d2e9	0.17365612
54	0x3e3080ec	0.1723668
55	0xbd5396e7	-0.051657584
56	0xbdc2f7c9	-0.095199175
57	0x3cccfe5e	0.025023635
58	0x3e86c77d	0.26324072
59	0xbd8392c3	-0.06424477
60	0xbd30f2d9	-0.043200348
61	0x3e639079	0.2222308
62	0x3e40a611	0.1881335
63	0x3e902d2d	0.28159466
64	0xbec16597	-0.3777282
65	0xbeb6e83a	-0.3572405
66	0xbdecb89d	-0.1155865
67	0x3c7450c9	0.014911839
68	0xbd0186c4	-0.031622663
69	0xbe13dfd6	-0.14440855
70	0xbda748a4	-0.08168152
71	0x3cc3520a	0.02384283
72	0xbe8b012c	-0.27149332
73	0xbe691850	-0.2276318
74	0xbd9a3233	-0.07529106
75	0xbe9aafa6	-0.30212134
76	0xbe8b260c	-0.27177465
77	0xbc1bb743	-0.009504142
78	0xbd98bee6	-0.07458286
79	0xbdb9f133	-0.09079208
80	0xbe976ca4	-0.29575074
81	0xbe20d742	-0.15707114
82	0xbce45063	-0.027870363
83	0xbeb22a11	-0.3479772
84	0xbe6151bb	-0.22003834
85	0xbe164ea9	-0.14678444
86	0xbebc1d1c	-0.3674096
87	0x3d03ce75	0.032179315
88	0xbe902db0	-0.28159857
89	0xbe86cc8d	-0.26327935
90	0xbe921266	-0.28529662
91	0xbea3e60e	-0.32011455
92	0xbea81d7b	-0.32834992
93	0xbdcc5a5d	-0.09978173
94	0xbdd6fec2	-0.1049781
95	0xbea7289c	-0.3264817

bias f4 [3]
0	0x3d31f870	0.04344982
1	0x3eac3707	0.33635733
2	0xbe042741	-0.12905599
