old/CNN/cnn_model.pth (torch, 31822 bytes, 14 tensors)

weight f4 [32, 3, 3, 3]
00000000: 2e95 433e 6674 363e 132a b7bd 6ea7 523e
00000010: 6227 05be 6cb1 f13b 2d96 02be 2284 6d3d
00000020: 867d 353e 5c34 babd 8171 3d3e 3bab 99bb
00000030: 3898 263e 0415 a0bd fb38 323d 4534 b6bd
00000040: c330 7c3d e4c9 bdbb 47bb 08bd 1464 e63d
00000050: 8534 90bd 440b aa3c 630c e5bd b14f 1d3e
00000060: e6c9 41be a04a fdbd 0bdb 22bd 4235 ecbd
00000070: 5792 3f3d c939 48be 6a2c 2b3e a4db 36be
00000080: 8d68 e73d d00b 0038 5ae8 b0bd fd84 d03d
00000090: 058a 4c3d 5869 513e e896 a33c 6ed4 5ebd
000000a0: 03e9 5c3d 78ef b7bd 9fa5 303d d6e7 0f3e
000000b0: cc48 ac3d e8f9 0ebd 081e 3f3e a76a 5e3d
000000c0: a403 123e 2080 a5bd 1949 49be 0f5f 9dbd
000000d0: e3dd 12be 1305 323e d0a0 8e3d df8c a93d
000000e0: be8a eb3d 08e8 1f3d e85f df3d 09ca d1bd
000000f0: c4cf 273d 33de 8fbd a3fe df3d 5f3c 64bd
00000100: 0620 7c3d 12f0 963b c218 423e 1bdd 1ebe
00000110: 495d b8bd 52e7 bcbd b398 643e b6c0 d33d
00000120: 67a7 5b3e 5c12 10be 76fd 0abe 1b32 e6bd
00000130: 88fa 1ebe 0f73 e43d b202 b83d 68f2 4e3e
00000140: c113 80bd 7258 02be e05c ca3d be95 94bd
00000150: 43af 283e a1f3 96bd 9307 e43d bd65 85bd
00000160: 2d4a e7bc 5e5e ef3d 1040 8f3d e364 51bc
00000170: 92fe 213e dd48 413e d6df 14be 9819 9cbd
00000180: f5de 5c3e 9145 84bd 2cc1 7ebd 8f5c 31be
00000190: 401f 85bd 6cd8 c03d d796 d33c c824 00be
000001a0: 9499 513d 8f5d f6bd d846 56be d817 1abe
000001b0: 45d2 21be 8cd2 30be ebd0 1e3e e2fb db3d
000001c0: f7cf b53d c139 48be 09a0 dfbd a2e8 85bd
000001d0: 6ea9 1ebd b8f6 2dbe ba8e fabd 0494 16be
000001e0: 71a0 923d 6909 06bd ffb7 9bbc 5e54 d6bd
000001f0: 0090 efbd 53dd 1dbe ce9e e0bd 6bdb 4cbe
00000200: eb1e 013e c305 c6bb e316 3e3e b773 433d
00000210: 94b0 38be 6af6 ea3d 3fd7 d7bd 391d 92bd
00000220: 760a 15be 277f 8bbe 1026 fd3c 68ea 44bd
00000230: 6041 d83d 929d 35be fdba 083e ff47 d8bd
00000240: 9697 6c3a afaf ad3d 910c 913c 5705 483e
00000250: 334f 7e3e 1af0 0ebe 4e8d 903d 1f5a 48bd
00000260: ac8d daba a687 02be d012 4d3e 44d3 5dbe
00000270: 283f e23d e4e4 a93d 696a 973d 8477 febd
00000280: ad10 213e e98d 7a3d aecd a6bc 814e 54be
00000290: 83c9 323d d49d 6fbd b044 00be 500a fd3d
000002a0: 275c 5a3c df01 1fbe 90d7 f0bd 3a22 0abd
000002b0: 7aac b33d 0444 b1bd 3dac f4bd dedf acbd
000002c0: 2f47 48be 78b6 3f3d 886c f93d 7218 46be
000002d0: 8129 7d3c a0e8 b73d 4bfb 9dbb ab4d a1bd
000002e0: 49ed ce3d 3cfc 523d 04c5 3d3d ba37 73bd
000002f0: 92c9 69bd c038 123c 347c 12bd 0a29 4bbd
00000300: 909c d13d 3b43 1f3e b248 0ebd a799 40bd
00000310: 3174 253b faa6 3abd 41a3 143d 8391 5d3d
00000320: 7450 32be 73d4 a7bd 593d 283e e362 613d
00000330: b79f 70bc e77b efbd b0da 22be 3a45 47be
00000340: d395 9cbd 9877 423d 41fa c23d aa4a 8e3d
00000350: 4129 55be 4d91 0cbe 2c8d 3ebd 42be 073e
00000360: 543f 7b3d 08b4 31bd d4fb 833d 6426 6ebd
00000370: 4a1b 27be 5ada fd3d 9c2c 9cbd 896f 843c
00000380: db77 04be 59c3 1a3e 6dad 0d3e 800e 163d
00000390: 4265 03be f197 76be e22d 40be 9a58 173e
000003a0: a00d 0a3e 8353 513e 163b 1e3e 31c5 843d
000003b0: ad41 b0bc aadf d7bd 82e0 3fbe 90d8 47be
000003c0: 301f cd3d c216 20bd 1c57 5c3c f78e 4bbe
000003d0: ea5c 08be d438 4dbe c564 0cbe d081 3b3d
000003e0: 3984 0ebe d286 ad3d c30d 9ebd 3b47 45be
000003f0: 17c9 2fbd 8d71 08be cf8b 7abd 9199 4fbe
0.19099876 0.1781784 -0.08943572 0.20571682 -0.13003305 0.0073758867 -0.127526 0.05798734
0.17723665 -0.09092018 0.1850033 -0.0046896017 0.16269004 -0.078165084 0.043511372 -0.08896688
0.06156994 -0.0057918895 -0.033381727 0.11249557 -0.07041267 0.020757325 -0.11184003 0.15362431
-0.18924674 -0.12367749 -0.039759677 -0.115335956 0.04677042 -0.19553293 0.16716161 -0.17857224
0.11299238 3.052858e-05 -0.086380675 0.101816155 0.049936313 0.20450342 0.019969419 -0.054401807
0.053933155 -0.08981222 0.0431267 0.14053282 0.084123224 -0.034906298 0.186638 0.05430093
0.14259201 -0.080810785 -0.19656791 -0.076841466 -0.14342456 0.17384748 0.06964266 0.08278822
0.11501072 0.03903964 0.109069645 -0.10243613 0.040969625 -0.07024803 0.1093724 -0.055721637
0.061553977 0.0046062553 0.18954757 -0.15514033 -0.09002168 -0.09223808 0.22323875 0.10339491
0.21450578 -0.14069504 -0.1357325 -0.112400256 -0.15525258 0.11154758 0.08984889 0.20209658
-0.06253768 -0.12729052 0.09880996 -0.072551236 0.16473107 -0.07370687 0.11134257 -0.06513546
-0.028233612 0.11687921 0.06994641 -0.012780401 0.15819767 0.18875451 -0.14538512 -0.07622069
0.21569426 -0.06458581 -0.06219594 -0.17320465 -0.06500101 0.09416279 0.025828762 -0.12514031
0.051171854 -0.12029564 -0.20925462 -0.15048158 -0.15802868 -0.17267817 0.15509383 0.10741402
0.08877557 -0.19553281 -0.10919196 -0.06538512 -0.0387358 -0.16988647 -0.12234254 -0.14704901
0.07159508 -0.032723818 -0.019008635 -0.104653105 -0.11697388 -0.1541646 -0.109677896 -0.20005576
0.1260945 -0.0060431673 0.18563418 0.047717776 -0.18036109 0.11472781 -0.10539102 -0.0713448
-0.14554772 -0.27245447 0.030901939 -0.04807511 0.10559344 -0.1773589 0.1335258 -0.10560607
0.00090252736 0.084807746 0.017706187 0.19533287 0.248349 -0.13958779 0.07058202 -0.04891407
-0.0016674302 -0.12747058 0.20026708 -0.21662623 0.11047202 0.082956105 0.07393343 -0.124251395
0.15729018 0.061170492 -0.020361748 -0.20733072 0.043649208 -0.058500126 -0.12526202 0.123554826
0.013327635 -0.15528058 -0.11759865 -0.033724047 0.08773132 -0.08655551 -0.11946914 -0.08441137
-0.19558404 0.046804875 0.12178904 -0.19345263 0.01545179 0.089799166 -0.004821216 -0.07876142
0.10103852 0.05151008 0.046330467 -0.059379317 -0.057076998 0.008924663 -0.03576298 -0.049599685
0.1023494 0.1555299 -0.034737296 -0.047021534 0.0025246257 -0.045569398 0.036288504 0.05409385
-0.17413503 -0.08194818 0.16429652 0.055025946 -0.0146865165 -0.11693554 -0.15903735 -0.19460002
-0.07645764 0.047477335 0.095203884 0.06947835 -0.20816518 -0.13727303 -0.04652135 0.13256171
0.06133969 -0.04338458 0.06444517 -0.05814208 -0.16319004 0.12395163 -0.07625696 0.016166465
-0.12936346 0.15113582 0.13835688 0.036634922 -0.12831596 -0.24081399 -0.18767503 0.14779893
0.1348176 0.20442013 0.15452227 0.06482924 -0.021515692 -0.105407074 -0.18737987 -0.19516206
0.10015714 -0.039084204 0.013448503 -0.19878756 -0.13316694 -0.2004121 -0.13710316 0.045778096
-0.13917626 0.084729806 -0.077174686 -0.19265454 -0.042916384 -0.13324566 -0.061168488 -0.20273425

bias f4 [32]
00000000: c6a4 abbd 3264 273e 3f83 103e 4d43 da3d
00000010: c7a8 bfbc 058f 28be e70d a2bd 8f83 773e
00000020: 6442 8b3d 2e0e 933d 330b a3bb 0f95 91bd
00000030: dcaf 8d3d d00d 32bd a474 243e ef27 b03c
00000040: c01c 743d 4ab2 5c3d f45d e0bc bcc8 d53d
00000050: bc82 293e 4e98 3d3e c963 303e d508 1ebd
00000060: 776c ddbd b4d0 043e b62a 243c aaf3 26bd
00000070: 24f9 b7bc c462 bb3b a85a 043e 3d4d e5bc
-0.083810374 0.16346815 0.14112566 0.10657368 -0.023395909 -0.16460808 -0.07912808 0.2417128
0.067997724 0.07180439 -0.0049757003 -0.07108509 0.06918308 -0.043470204 0.1606012 0.021503417
0.05959773 0.053880967 -0.02738855 0.10438678 0.16553777 0.18515131 0.17225565 -0.03858264
-0.10811704 0.12970239 0.010019949 -0.04075972 -0.022457667 0.005718561 0.12925208 -0.027990932

weight f4 [32]
00000000: 65fc 7a3f 6832 7b3f ce5f 763f 1aca 773f
00000010: 2302 803f 37d9 843f b330 763f 2d31 7a3f
00000020: f8b9 873f 62b2 7c3f 5618 773f f042 803f
00000030: 35be 8c3f 3866 863f 28c6 803f da8a 8c3f
00000040: 2f20 733f 1e74 763f e205 863f 738c 823f
00000050: 08d1 893f 4f03 833f 37a3 803f 88a3 773f
00000060: aeef 7a3f 498d 803f 8aaf 853f 13b4 733f
00000070: d56c 833f c274 823f f9d2 803f 29fa 743f
0.98041373 0.9812379 0.96239936 0.9679276 1.0000652 1.0378789 0.9616806 0.97731286
1.0603628 0.9870969 0.9652151 1.0020428 1.0995547 1.0499945 1.0060472 1.0979874
0.94970983 0.9627093 1.0470545 1.0199112 1.0766916 1.0235385 1.0049809 0.96733904
0.9802197 1.0043117 1.0444195 0.95196646 1.0267588 1.0191882 1.0064384 0.95694214

bias f4 [32]
00000000: d803 bb3d 487f b7bc d43a d8ba 51c8 babc
00000010: 0049 c13c c88e e5bc 5504 51bd 1af4 323b
00000020: 40c4 193b 388d 1ebd d4b2 b7bb de3f 2ebd
00000030: 6d73 b13c 5296 b7bd 6f75 d13a 7e56 b63d
00000040: 2991 a3bd 29db e6bc 9075 31bd 8016 82bd
00000050: d566 b13d 99a4 ae3b e607 eb3c 297d 013d
00000060: 3388 f63c ce91 34bd 1e38 60bc 8430 b3bc
00000070: 7619 1c3c 0f2a 78bc c885 b5bb 45f2 29bd
0.091315925 -0.02239956 -0.0016497024 -0.022800596 0.02359438 -0.028022185 -0.051029522 0.002730614
0.0023462921 -0.038708895 -0.005606035 -0.042541377 0.021661485 -0.08964218 0.0015980433 0.08903216
-0.079866715 -0.028180676 -0.043325007 -0.06351948 0.08662192 0.00532968 0.02869029 0.031613503
0.030094242 -0.044084363 -0.013685254 -0.02187372 0.009527555 -0.015146746 -0.0055396296 -0.04149081

running_mean f4 [32]
00000000: 8683 f13d 0f99 a93e 7d60 c23e c06a 51b9
00000010: 0733 20bf b9e7 1cbe 04f1 dabe 4456 193d
00000020: e920 2a3c c38e efbe 3cd1 d13d ad38 e1bd
00000030: 73bb a3be 6149 83be 1a38 c0bc a2d5 a9be
00000040: aaba 103f 9556 133e e68f 043f f9c1 c53e
00000050: 4788 bf3c 9cc9 cfbd 9ecf 5c3d f84a d1be
00000060: aea2 b13c 1749 eebd 12fb 90bd 0ef0 a73e
00000070: 20b9 e4be a4b8 60be f0d9 e93d 7409 69bd
0.11792664 0.33124587 0.3796424 -0.0001997156 -0.6257786 -0.1532277 -0.42762005 0.037435785
0.010383823 -0.46788606 0.102449864 -0.10997138 -0.3197895 -0.2564192 -0.023464251 -0.331708
0.56534827 0.14388497 0.5178207 0.38624552 0.023380412 -0.10145876 0.053908937 -0.4087751
0.021684017 -0.116350345 -0.07079138 0.32800335 -0.4467249 -0.21945435 0.114185214 -0.05689378

running_var f4 [32]
00000000: 8259 893c 8d7f 2c3c 7305 a63c 1256 2c3c
00000010: f71d f93d cf6a d53b af79 293d e044 8f3c
00000020: 5deb c03b 583c cb3d 98fb 103c 6418 e23b
00000030: 32c0 673d 3604 933c 310e 6a3c 1988 2b3d
00000040: ba5f b43d c1c9 193c 9b2d ca3d 3e11 003d
00000050: 5659 213c ff1d 103d 33d9 373c ec6b 533d
00000060: 5f9c 0b3c 1c34 d03c 6ad7 8d3b 44ca 533d
00000070: d871 863d 5e4f ab3c faad 983b fe60 643c
0.016766313 0.010528457 0.02026627 0.010518568 0.121639185 0.0065129767 0.041375812 0.017488897
0.0058874325 0.09923619 0.008849047 0.0068998802 0.056579776 0.017946344 0.01428561 0.04187784
0.08807321 0.009386481 0.0987198 0.031266443 0.0098479595 0.035184857 0.011221218 0.051616594
0.0085211685 0.025415473 0.004328658 0.051706567 0.06564683 0.020911869 0.0046594115 0.01393914

weight f4 [64, 64]
00000000: d860 47bd 34ad e5bd 195a e8bc 895f f0bc
00000010: 5779 e83d efd9 9d3d 4ff6 f63d b8ef 96bc
00000020: b82c eabc 2c44 2e3d 08b4 48bd 1748 3a3d
00000030: ba7a 81bc 2a88 73bd 9da7 11be 9d63 023e
00000040: 5696 e93d e765 983d d442 193e a030 39bc
00000050: 5411 063d 1387 9b3d 623b 30bd a271 66bb
00000060: 88bb e3bd 8d2a 74bc 4213 c5bd f033 983c
00000070: 3149 dc3d 5b99 01bb b647 35bd a984 493d
00000080: f923 08bd 32ae 21bd b37d 193e f377 b4bd
00000090: 03ff b3bd ee08 bcbd b7ce eabc 42ad f7bd
000000a0: 886a 943a 5115 643d 2567 373d a82c c5bd
000000b0: 7400 c5bd b08d 8cbd dd8d fbbd 61bd 20bd
000000c0: 03bf e9bd 1f61 af3d f943 c0bd 57e8 05be
000000d0: bdbc 3bbe a6ca 643d bd3b 9fbd 5fc5 80bd
000000e0: ce85 5c3d 05bf c83c acfe 8c3d 35f9 14be
000000f0: a4cf c1bd 7deb 7bbd 8767 e93c d23c 81ba
00000100: fce7 c6bd 51a0 8dbd acce bdbd f453 bcbc
00000110: 8d2c eabb 78f6 e83d 67ba dd3c 21de d9bc
00000120: 903e 8cbd d9e0 babc 8e36 2d3d 4393 563d
00000130: aaec b13c 505d 89bd 0406 543d f76b 2ebc
00000140: 210c 37bd 4b08 c13d 4ef7 fe3d 2c0e 043e
00000150: 85fe 043d 1d44 0b3a e975 f53c c8a0 ba3d
00000160: bedc 13be 01e7 adbc b036 99bd d094 1c3d
00000170: e975 543d b0e6 dfbc a8f7 45bd 26c1 3e3d
00000180: 93f8 02bd c40f cebd d775 903d 2bdd c6bd
00000190: cc91 a3bc ebbf 64bd ee98 cdbc 9e0c 60be
000001a0: e507 3a3d 2c15 8fbd 3d49 9abd ab48 1abc
000001b0: c61a a0bd a764 f5bd e84c 06be 882e 60bd
000001c0: 2dbf 92bd e817 f6bb 5c85 bb3c 6ba9 11be
000001d0: 03ca 3ebe e5de 1bbc eb39 e1bc f970 693d
000001e0: 0f1b 0abe 1609 e7b9 d9d3 313d 0651 2f3d
000001f0: 0e15 0abe 509f cfbd 44f6 26be d79e f2bd
00000200: dd80 693d b81e 98bd c362 053d 7a6b b0bd
00000210: 5e82 22bc 0bf3 73bd 204b 1d3d ddce b73b
00000220: 457b d1bd b019 cfbd 4d8b 23bd f759 0e3e
00000230: ae81 913d 4045 e2bd b371 1ebd 565e eab9
00000240: 2d49 aebd da0e 2b3e b7c9 2d3c 6442 dd3c
00000250: c407 8dbd 9c0b 5fbd 6a74 2e3d 376d 1e3d
00000260: 016d 61bc 1085 8ebd 46d9 233e 188b 5a39
00000270: 1a14 f9ba 4486 a2bd dce1 a23d 495a c93c
00000280: c0f5 5f3c 3241 b3bc 031c ffbc 9e39 a9bd
00000290: f21f ecbd 1c36 ef3c adea 993d eeae 8a3d
000002a0: a34a 76bd c179 883d 302d dabd 977f 233d
000002b0: d17c c73d 394a 1a3d 26f3 783d e04c 883d
000002c0: bd8c b1bb fd93 e13d 2f66 14bd d70c 973c
000002d0: 98fd e6bd d85a 33bc 46ff 05be a67a 22bd
000002e0: 9426 e5bd ff69 89bd b4d0 ccbd fde2 01be
000002f0: 7256 803c 769c 4c3d 4f61 f93d 6943 8c3c
00000300: 005a c1bd 25ae c1bd 09bb 533d 0ad7 0e3d
00000310: 1d06 dabd 2369 e63d f007 0e3e 7f62 273c
00000320: 8615 28bd ac18 053e 602c 93bc 6f57 c33d
00000330: 870d 24be 6fe1 053e 0df9 b6bd 85fb 423e
00000340: 014f 0dbd 46f5 973d cadd 7a3d 9ac9 f63d
00000350: cb50 acbb 2558 143e 690d 6fbd 2b1f c4bd
00000360: d407 8abb 499a 4d3d a38b e7bc f7ac 7c3d
00000370: 6c2e 84bc f07b 223e d542 9b3d 9aba b9bb
00000380: 1052 29bd af97 d6bd b826 773d 1c2e 2fbd
00000390: bc59 e03d 1d3d cbbd c4e2 893d 9494 e43d
000003a0: 2818 083e 7134 a33d 1017 2bbe 3aed f23d
000003b0: 992d 673c b64b 0ebe 8293 e93d 227a 00bd
000003c0: 9da8 5a3c c2c1 693e f4af 8abd 3966 c1bd
000003d0: e6b9 b3bd fb11 f13c 32c7 173d ba2e b2bd
000003e0: 8b0c b5bc 2041 e2bd 51d7 12bd 5c15 dfbd
000003f0: 47cf dc3d e084 e03c c422 e7bd cbe7 963d
-0.04867634 -0.112146765 -0.028363274 -0.02934243 0.11351269 0.07707583 0.120586984 -0.018424854
-0.028585777 0.042545483 -0.048999816 0.045478906 -0.01580559 -0.059456028 -0.14224096 0.12733312
0.114056274 0.07441311 0.14966899 -0.011303097 0.03273137 0.07594123 -0.043025382 -0.0035162945
-0.11119753 -0.014902723 -0.09622814 0.018579453 0.10756148 -0.0019775245 -0.044257842 0.04919878
-0.03323743 -0.039472766 0.14989357 -0.08811941 -0.08788874 -0.09181391 -0.028663022 -0.12093593
0.0011323253 0.05568439 0.0447761 -0.09627658 -0.09619227 -0.06862962 -0.12282918 -0.039243106
-0.11413386 0.08563446 -0.09387965 -0.13076912 -0.18333717 0.055857323 -0.07775066 -0.062876455
0.053838544 0.024505148 0.06884512 -0.1454819 -0.094634324 -0.061503876 0.028491748 -0.0009860045
-0.09712216 -0.069153436 -0.09267935 -0.02298925 -0.007146424 0.11375135 0.027066423 -0.026595177
-0.0684787 -0.022812294 0.042288356 0.052386533 0.021719296 -0.06707251 0.05176355 -0.010645858
-0.0446893 0.0942541 0.124495134 0.12896031 0.03246929 0.0005312579 0.02996345 0.09112698
-0.14439675 -0.021228315 -0.07481134 0.038227856 0.05187026 -0.02733168 -0.048331887 0.04657092
-0.03197534 -0.10061601 0.07053726 -0.09710153 -0.019966982 -0.05584709 -0.025097337 -0.21879813
0.045417685 -0.0698646 -0.075335 -0.009416739 -0.07817607 -0.119820885 -0.13115275 -0.054731876
-0.0716537 -0.007510174 0.02289074 -0.14224784 -0.18631749 -0.009513591 -0.027493438 0.056992505
-0.13486885 -0.00044066523 0.043414924 0.04280188 -0.13484594 -0.10137808 -0.1630488 -0.118467025
0.05700766 -0.07427734 0.03256489 -0.086142495 -0.009918777 -0.059557956 0.038401723 0.005609377
-0.1022859 -0.101123214 -0.03992777 0.13901506 0.071048126 -0.11048365 -0.03868265 -0.00044702244
-0.08510051 0.16704884 0.010607175 0.027009197 -0.06886247 -0.05445443 0.04259149 0.038678374
-0.013758899 -0.069589734 0.16000852 0.00020841917 -0.0019003183 -0.079357654 0.079532355 0.024579184
0.013669431 -0.021881673 -0.031141287 -0.08262943 -0.115295306 0.029200606 0.07515464 0.067716464
-0.060129773 0.06663848 -0.1065315 0.0399166 0.09740604 0.03766844 0.06077876 0.06655288
-0.0054183886 0.11014555 -0.036230262 0.01843874 -0.11278838 -0.010946952 -0.1308566 -0.039667748
-0.11188999 -0.0670967 -0.100007445 -0.12684245 0.01566622 0.0499539 0.12176763 0.017121987
-0.09440994 -0.094570436 0.051692042 0.034873046 -0.10645697 0.11250522 0.13870215 0.010216354
-0.04103615 0.12997693 -0.017965496 0.09538161 -0.16020785 0.13074277 -0.089342214 0.1904126
-0.034499172 0.07419829 0.06124667 0.12050171 -0.0052586547 0.1448675 -0.0583624 -0.09576257
-0.004212359 0.050195966 -0.028264826 0.06168839 -0.016135417 0.15867591 0.075811066 -0.0056679966
-0.041338027 -0.1047815 0.06033966 -0.042768583 0.109546155 -0.09923766 0.06732705 0.111611515
0.13290465 0.07968987 -0.16708016 0.118616536 0.014109992 -0.13896069 0.11405088 -0.031366475
0.013345865 0.22827819 -0.06771842 -0.094433255 -0.08775692 0.029427519 0.0370552 -0.08700319
-0.022100708 -0.11047578 -0.035849873 -0.10892746 0.107817225 0.02740711 -0.11285928 0.0736843

bias f4 [64]
00000000: f141 7c3d 17a7 8b3d feba 063d f6c7 fa3d
00000010: 0d6d d7bd bcde c53d be38 23bd 7230 023d
00000020: c83b a63d 8d95 b0bd 9a49 4b3d ee67 b4bc
00000030: 26d6 aa3d 368f 753c fc82 8e3d 3a5b ec3d
00000040: a3d3 17bd aaaa ffbd 06b5 ec3d b098 9bbd
00000050: 9d6c f33c d627 ad3d 585c 27bc 733d d03d
00000060: e80c 863d 76b5 d4bc 34a6 283d 775b 323c
00000070: b6ef f13d c889 b23d 4090 debd 076c 993c
00000080: 1159 8f3d aeeb c63d 256c 733d b709 113d
00000090: a24c 1bbd ae09 73ba 75ca 9fbd 7fa0 cd3d
000000a0: 25f5 cd3d db37 83bd 5d49 e3bd 4e32 b53d
000000b0: 22f1 f1bd 18cd ae3d 2897 e6bd 3496 5dbd
000000c0: 54cd 23bd 6691 f43d 714a b6bc 0d76 cc3d
000000d0: 2476 063d c50b f73d 6a33 a33d 18a0 ce3d
000000e0: 4f5f d63d 715b 12bd d5e9 d8bc b07b 3b3d
000000f0: c47b fc3d 93b2 57bd a059 d2bd 7dc4 c2bd
0.061586324 0.06818979 0.032893173 0.12245171 -0.10518847 0.09661624 -0.039849035 0.031784482
0.08116871 -0.086222745 0.04963074 -0.022022214 0.08341627 0.014987757 0.06958577 0.115408376
-0.037067067 -0.124837235 0.11557965 -0.07597482 0.029714877 0.08454864 -0.010214888 0.101679705
0.065454304 -0.025965434 0.04117413 0.010886065 0.11813299 0.08717686 -0.10867357 0.01872827
0.0699941 0.09712921 0.059429307 0.035409655 -0.03791488 -0.0009271157 -0.078022875 0.10040378
0.10056523 -0.06407138 -0.11097977 0.088474855 -0.118135706 0.08535212 -0.112592995 -0.054098323
-0.039990738 0.11941795 -0.022252293 0.09983454 0.03282751 0.12062792 0.07968791 0.10089129
0.104673974 -0.035731737 -0.026478687 0.045772254 0.12328294 -0.052660536 -0.10271001 -0.095101334

weight f4 [64]
00000000: dbf9 7b3f 5630 873f ce36 823f 274a 793f
00000010: da6d 813f ff9d 833f 7092 7a3f a6d2 8d3f
00000020: ec7b 8b3f 7167 7e3f adda 893f 7b22 7f3f
00000030: 71f0 873f d035 7d3f dccb 893f 538a 733f
00000040: 6da8 883f f1e9 793f 3980 6c3f aae7 7b3f
00000050: 38ee 853f 0c47 823f 3a8b 8a3f 9333 873f
00000060: 358b 883f db91 7d3f ed8b 793f 17ee 773f
00000070: 24d8 7a3f e6e7 873f bb88 793f 4215 863f
00000080: 3757 7e3f f7a5 753f 69bf 8c3f c174 7c3f
00000090: 3622 893f 33a0 8d3f 592a 843f 13ce 863f
000000a0: f8ad 773f 91fd 703f 6f14 883f 9e6d 883f
000000b0: e562 833f ab7d 7a3f 9441 903f afec 863f
000000c0: 98d1 833f 93fe 833f d147 883f 5516 823f
000000d0: c448 793f 74ef 7e3f 16c7 873f 99a5 893f
000000e0: 6da1 7e3f e3ee 893f 4900 893f 89fd 843f
000000f0: 9ae2 893f 077b 8b3f d4c8 7d3f 9572 853f
0.98428124 1.0561626 1.0172975 0.9737877 1.0111649 1.0282592 0.97879696 1.107991
1.0897193 0.9937659 1.076986 0.9966199 1.0620252 0.98910236 1.0765338 0.9513294
1.06764 0.9762259 0.9238315 0.98400366 1.0463324 1.0177932 1.0823739 1.0562614
1.0667483 0.9905068 0.97479135 0.9684767 0.97986054 1.0617645 0.9747426 1.0475237
0.9935183 0.9595637 1.0995914 0.9861565 1.0713565 1.1064514 1.0325423 1.0531639
0.9674983 0.9413691 1.0631236 1.0658453 1.0264555 0.97848004 1.1270013 1.054098
1.0298338 1.0312065 1.0646917 1.0163065 0.97376657 0.99584126 1.0607631 1.0753661
0.99465066 1.0776027 1.0703212 1.0389873 1.0772278 1.089692 0.99134564 1.0425593

bias f4 [64]
00000000: f800 abbc 419b 953d 90f2 6a3d aebf 7cbd
00000010: c9a1 36bd 7cdd 193c fa15 23bd 4860 8b3d
00000020: 506f 8e3d 869c fa3a 2957 d73d 00dd e6bc
00000030: d016 c73d 10f9 c0b9 0fb1 993d 6efe 75bd
00000040: 1324 f53d deec 8fbc 4f07 62bd 37ec 5d3c
00000050: 65ac c33d b31c 943d eae8 9d3d d98a 0b3e
00000060: e67d 943d 2b96 32bd 8dd1 cbbc a26f 7e3c
00000070: ce70 cabc 128e 4b3d 1b33 60bd e304 c73d
00000080: 5a0d fd3b 6cc7 30bd 23ad a13d 926f efbc
00000090: 9e74 8c3d 3da6 b73d 8262 37bd f256 ae3d
000000a0: 1090 8f3c 36fa 63bd 2371 393d 9b6c c13d
000000b0: 8fe9 2dbd 5343 0b3d f09b eb3d 9dcf 873d
000000c0: ce2a 703d a92c 2e3d 34a5 ab3d 9139 f1bb
000000d0: 8ffd 3fbd 3619 dc3c 7d4f 1a3e 409c c93d
000000e0: 805e ca3c d7b8 2c3e 582c 353e 7e4a f13c
000000f0: fc5e ab3d db16 e23d 288f fcbc 1bb7 4f3d
-0.020874485 0.07305003 0.057360232 -0.061706237 -0.044587884 0.009391185 -0.03981588 0.068054736
0.06954825 0.0019120134 0.10514671 -0.028181553 0.09721148 -0.0003680666 0.07504474 -0.060057096
0.11969771 -0.017569002 -0.05518275 0.013545088 0.09554366 0.072320364 0.077104405 0.13627185
0.07250576 -0.043600243 -0.024880195 0.015529545 -0.024711993 0.049696036 -0.054736238 0.09717729
0.007722539 -0.043158934 0.07894351 -0.029228006 0.068581805 0.08967254 -0.04477168 0.08512677
0.017524749 -0.05565854 0.04527391 0.09444543 -0.042459067 0.033999752 0.11504352 0.06631396
0.05863457 0.04252306 0.08381119 -0.007361599 -0.04687267 0.02686749 0.15069385 0.098442554
0.024703264 0.16867386 0.17692697 0.029454466 0.08367726 0.110395156 -0.030829981 0.050711732

running_mean f4 [64]
00000000: dd7e 85bd 5f97 b9be 5170 103f 60c6 0f40
00000010: 7a2c 603f 55a7 cd3f 51c2 963e 3a9b cdbf
00000020: 7b19 42be 18ba 873f 8e74 09bd 2c80 8c3f
00000030: db95 6fbf 22b1 833e fa52 02c0 cd46 65bf
00000040: f457 3abe 4ef2 4ac0 e975 2d3f 8cb0 2640
00000050: 8a81 fcbe d361 6bc0 43c9 31bf ec37 15c0
00000060: 3d57 a53f 5a80 f83f eede 0d3f 134c b0bf
00000070: 8e7e 36bf ed4b b4bc 1291 e73f fc4a 0dc0
00000080: 13ba 6f3f 7ecf e53f 14c9 dbbd 121f b5bf
00000090: b3b3 8d3e 0c1e 413f fb70 1a3d d496 993f
000000a0: 2872 0e40 6dfd b5bf 4d10 89bf 5177 93bf
000000b0: 7fcc 333e 9f9a b03e 920f dd3f 487b 323f
000000c0: 32ea 6540 abed 943f 6ea5 e1bf c753 2d3f
000000d0: f5cb 0fbf 4c3f 34c0 447f 6abf dab3 2ec0
000000e0: e8fb ad3e 1b30 96be d8d1 8cbe 04c8 413f
000000f0: b284 9e3e 48cc 89bc fe41 11be 65d1 dc3e
-0.06518338 -0.362483 0.5642138 2.2464828 0.87567866 1.6066691 0.29445127 -1.6062996
-0.18955033 1.0603666 -0.03355842 1.0976615 -0.93588036 0.2572108 -2.0363145 -0.8956116
-0.18197614 -3.171039 0.6775804 2.6045256 -0.4931758 -3.6778457 -0.69447726 -2.3315382
1.2917248 1.941417 0.5541829 -1.3773216 -0.7128686 -0.02200886 1.8091147 -2.2077017
0.936433 1.7953947 -0.10731712 -1.4150107 0.27676162 0.7543647 0.037705403 1.1999154
2.2257175 -1.4217964 -1.07081 -1.1520787 0.17558478 0.34492967 1.7270377 0.6971936
3.5924191 1.163503 -1.762861 0.6770596 -0.5617059 -2.8163633 -0.9160044 -2.7297273
0.33981252 -0.29333577 -0.27503848 0.75695825 0.30960613 -0.016821042 -0.1418533 0.43128505

running_var f4 [64]
00000000: 2a6c 613e 2c4c ac3e 153c 8a3e 21e4 483e
00000010: 0267 613e 92eb 6c3e 2bb4 413e 70e3 dc3e
00000020: 0e2c ac3e 7430 ed3e 873c 923e fc6f 993e
00000030: 2173 2a3f e82d 623e 3fec 123f 48cb 443f
00000040: b733 8d3e ea43 e43f 63c6 843e 22db d33f
00000050: 160e d63d 5780 8e3f 4ed3 cf3d cfd9 653f
00000060: 847d 573e 2dcd 5f3e e8cc 803e ffb4 953f
00000070: 1e2e dd3e d68e 163e 79e7 fd3e 8cda e33e
00000080: 3b3d 4e3e 658a 9a3e 33f7 4a3e 9327 713e
00000090: 0a31 0c3e 4ebb 643e 1a72 e03e cd33 ea3e
000000a0: 72f5 ab3f dd7f c73e befb cb3e 571b 443e
000000b0: 318f 993e abd3 a53e 4ca1 593e 5db6 903e
000000c0: ef2e 8c3f d3ec e63e 41a7 203e ce24 a83e
000000d0: cdd5 313e 8fcd 853f 5f18 c93e a8e8 7b3f
000000e0: 4bc5 643e 1521 403e 4cbd 903e b473 043e
000000f0: c00d 953e cb13 c43e de7c e83e d748 ab3e
0.22013918 0.33651865 0.26998964 0.19618274 0.2201195 0.23136738 0.18916385 0.4314227
0.3362736 0.4632603 0.28561804 0.2996825 0.6658192 0.22087824 0.5739173 0.7687268
0.27578518 1.7833226 0.25932607 1.6551249 0.104519054 1.1132916 0.10147725 0.89785475
0.21043974 0.21855612 0.2515633 1.1695861 0.43199247 0.14702925 0.49590662 0.44502676
0.20140545 0.30183712 0.19820862 0.23550253 0.13690582 0.22337076 0.43837053 0.45742646
1.3434279 0.3896474 0.39840502 0.19151054 0.2999206 0.32388052 0.21252936 0.28264132
1.0951823 0.45102558 0.15688802 0.3284058 0.17366715 1.0453357 0.39276406 0.9840188
0.22340886 0.1876262 0.28269422 0.12934762 0.29112053 0.3829635 0.45407766 0.3345401

weight f4 [3, 64]
00000000: 3e5b da3b 2389 a23d 963b 713c c260 513d
00000010: 3fd1 6ebd f9d2 c73d 25bb aebd aa2d 453e
00000020: 531d 8e3d c601 be3d 1fc4 d23d a30b 85ba
00000030: 5451 2d3e b143 723d b559 993d f4d4 9abd
00000040: 9133 803d 5e2d 923d c2f4 323d 449a a43c
00000050: 0284 0c3e 6ca6 ec3d 9853 373e ff70 583d
00000060: 280c 8f3d 688a 17bc 99e5 9fbd 4afe 5c3c
00000070: 867e 783c cfd6 e4bd 1262 b1bd d9b5 0a3e
00000080: 716b fa3d 0232 8cbd 5f63 063e 6bc8 6ebd
00000090: 3056 3f3e 3ad2 1d3e 86fc a0bd 572f 253e
000000a0: e3f6 82bd b670 f2bc 41ee 253e 4c63 b93c
000000b0: 6743 a8bd efcc 613d bd1b ae3d e0e1 183e
000000c0: 59d1 ea3d 6c54 8a3d 43dc 953d 74b0 933d
000000d0: fb72 fc3c 554b 7b3d e0d8 8e3d 2796 0f3e
000000e0: 1d0c f73d e14c 5d3d 0524 a83d 5f27 853d
000000f0: 96c2 e93d c756 333e 5726 a0bd ef65 b73d
00000100: 275a b3bd 676d 20be 169d f5bd 2213 18bd
00000110: 6daf ea3d 5174 c5bd 7b22 343d 6228 383d
00000120: d8b1 10be 4bbd f0bb d65a 73bc bd72 0abe
00000130: 232c 0bbd 1bde 02be c1bd af3d fa51 183d
00000140: 5778 e53c d37f bb3d 36fd 9f3d 0365 ef3d
00000150: 878c 0f3d 6fa5 9bbd e7aa 3b3d 61f9 8fbc
00000160: 8e15 4ebd acdd d2bd 4231 e23d e405 433c
00000170: 6511 ca3d bbc7 833d 519f cc3d d80d 14be
00000180: fbf7 d0bc 950a 623c 2541 6c3c ea22 d23d
00000190: da4d e7b9 bc27 5dbd 63f3 fc3d 1e21 5abc
000001a0: ef19 07bc f549 f5bd 5a98 2abd 31b6 99bd
000001b0: 7b3f a93d e36c 9f3d 2573 37be 1146 bfbd
000001c0: 18d4 f63d d7fc 3fbc 4db0 d03d 5221 053e
000001d0: 4a8b 19bd 8073 f1bd dada 883c 9153 133d
000001e0: e8f5 d13d 2477 78bc 01e1 913d bb62 0cbe
000001f0: ef54 35bd 686d ba3b c7a3 7d3d 1039 b6bd
00000200: def7 8abd 27d0 0bbe 8aa2 06be d857 74bd
00000210: 6919 1fbd e71f 2ebd 39b6 cfbc d323 13be
00000220: ab77 0abe 87ab b13b 7d51 32be 5ea5 b0bb
00000230: ae29 16bd 55f5 81bb 02c8 2cbe 190e a23c
00000240: 3dcb 28be 58db 08bc 8e51 853d 9714 27bd
00000250: 8271 43bd f12e 44be 228b e6bd b385 0dbe
00000260: b7d0 53be 6391 c4bd 7771 783d 5ccf 98bd
00000270: fe27 ee3d b09b 1cbe 8313 7f3c 056c ba3c
00000280: 9a93 443d 4318 9bbd 8bfa 91be f683 05be
00000290: 8722 a1bc c8fe b7bd 29e4 ee3d b1fd 3cbe
000002a0: c837 a8bd 58dc 093d 43d8 0bbd 013a 31be
000002b0: 600d f33d db97 95bd 9cd0 81be bebd 8bbd
000002c0: 7f67 e9bd fd7c 22be 5caa 1fbe 7136 18bd
000002d0: a7bd 033d c82d 553c d445 1abe 18fa 01be
000002e0: c86f 8ebb 9ed7 18be d115 0ebe a359 94bd
000002f0: 6585 36be 8305 37be f2e3 043e 303d 85bd
0.006663709 0.07936313 0.014723679 0.051117666 -0.05830502 0.09757037 -0.08531789 0.192557
0.06939187 0.09277682 0.102913134 -0.0010150563 0.16925555 0.059146587 0.074878134 -0.07560149
0.062598355 0.07137559 0.04369045 0.02009309 0.13722232 0.1155518 0.17902982 0.052842136
0.069847405 -0.009249307 -0.07807464 0.013488362 0.015166884 -0.11173784 -0.086612836 0.13545932
0.12227524 -0.06845476 0.13123845 -0.058296602 0.18685222 0.15412226 -0.07860665 0.1613134
-0.06394746 -0.02959476 0.16204168 0.022630356 -0.08215981 0.05512708 0.085013844 0.14929914
0.11465711 0.067543834 0.07317402 0.0721139 0.030816546 0.06135114 0.069749594 0.14022122
0.12062857 0.054028396 0.08209995 0.0650165 0.114140674 0.17513572 -0.07819813 0.08954989
-0.087574296 -0.15666734 -0.119928524 -0.03712762 0.11459241 -0.09641326 0.043978196 0.044960387
-0.14130342 -0.007346784 -0.0148532 -0.13520332 -0.03397764 -0.12780039 0.085811146 0.037187554
0.028011484 0.0915524 0.07811968 0.11689188 0.035046127 -0.07599913 0.045817282 -0.017574968
-0.050313525 -0.10296187 0.110445514 0.01190326 0.09866599 0.0643458 0.09991325 -0.14458406
-0.025508871 0.013796468 0.014419829 0.102605656 -0.00044117757 -0.05399297 0.1235111 -0.01331356
-0.008245929 -0.11976997 -0.0416492 -0.075054534 0.08264061 0.0778444 -0.17915018 -0.09339536
0.120521724 -0.011717997 0.10189877 0.13000992 -0.037486352 -0.11789608 0.016705919 0.035968367
0.10251981 -0.015165124 0.07122994 -0.13709538 -0.044270452 0.005689312 0.06192377 -0.088976026
-0.06785558 -0.13653623 -0.13147941 -0.059654087 -0.038842592 -0.042510893 -0.025355445 -0.14369135
-0.13522212 0.005422059 -0.17413898 -0.005390807 -0.036660843 -0.0039660134 -0.16873172 0.019782113
-0.16483779 -0.008353077 0.06509696 -0.04079112 -0.04771567 -0.19158532 -0.11257006 -0.13820533
-0.20685087 -0.09598043 0.060655084 -0.07461426 0.11628722 -0.15293765 0.015568617 0.022756586
0.047992326 -0.07572987 -0.28511462 -0.1303862 -0.019669784 -0.089841425 0.11664612 -0.1845615
-0.082137644 0.0336574 -0.03414179 -0.17307283 0.118677855 -0.07304355 -0.2535447 -0.068233
-0.113966934 -0.15867992 -0.1559233 -0.037161294 0.03216329 0.013011403 -0.150657 -0.1269306
-0.0043468215 -0.14926001 -0.1387551 -0.07243659 -0.17824323 -0.17873196 0.12977579 -0.06505811

bias f4 [3]
00000000: 72b6 ad3d c732 f23c c14a afbc
0.08482064 0.029565228 -0.02139795
