3_DB_2/db_2_model.pth (torch, 17826 bytes, 20 tensors)

weight f4 [8, 3, 3, 3]
000000 88 48 d2 3e 17 9f 0f 3e ad c2 37 3e 87 a5 bb bc
       0.41070962 0.14025532 0.17945357 -0.022906078
000010 50 0c ac 3d 49 20 11 bd bb 4f 6b 3e ba d6 bc bd
       0.08400786 -0.03543118 0.22979634 -0.09220643
000020 1f 07 d4 3e 45 80 84 3e 0c 19 f5 3e c3 00 c7 3e
       0.41411683 0.25879112 0.47870672 0.3886777
000030 f7 ae 00 3f 52 65 cb 3e 79 16 c0 3e b9 04 cb 3e
       0.50266975 0.3972574 0.37517145 0.3965204
000040 7b 49 0a 3f 87 7f c2 3e 67 72 17 3e b2 28 07 3e
       0.5401837 0.3798792 0.14789735 0.13199118
000050 1d ee 68 3d 98 f5 a2 ba 86 b8 32 3d 76 b4 36 3e
       0.056867708 -0.0012432812 0.043633007 0.17842278
000060 0e cf eb 3d b0 7b 23 3d 29 f9 2e 3e bd d1 e2 be
       0.11514102 0.03991288 0.17087235 -0.44300643
000070 24 a4 ee bd 0f 21 da be 7f 96 70 3f c9 11 46 be
       -0.11652401 -0.42603347 0.9397964 -0.19342722
000080 fb f2 87 3d a0 65 98 be 86 90 48 be 69 cf c0 3e
       0.06638142 -0.29765034 -0.19586381 0.3765824
000090 d8 6e ae be 0c 30 f3 3a c2 5f 44 be dd 5d c2 3e
       -0.34068942 0.0018553748 -0.19177154 0.37962237
0000a0 bc 71 e0 bd 06 17 4e be 50 72 ae be a8 e3 9b bd
       -0.10959193 -0.2012597 -0.3407159 -0.07611781
0000b0 f8 e3 9d 3d 3a e0 ce be f6 11 82 3d 38 ab 16 be
       0.07709497 -0.40405446 0.06351082 -0.14713752
0000c0 03 86 58 3f 5b 93 63 bd 0f e1 5d be bc ad e9 be
       0.84579486 -0.05556045 -0.21667884 -0.4564036
0000d0 a2 ad 8a be d9 18 d6 3e bf 9e 98 3e 84 2f a6 3e
       -0.27085596 0.41815832 0.29808614 0.32458127
0000e0 9c 7d bd 3e 90 02 83 3e ad dd c9 3e bc 7b 24 3e
       0.37009895 0.25587893 0.39426938 0.16062826
0000f0 d1 f1 83 3e 92 e2 f5 3d 15 5d cb 3e 47 1c e0 bc
       0.2577043 0.120061055 0.39719453 -0.027357234
000100 26 31 93 3e 8f bc 96 3e 3f a4 c5 3e 78 11 df 3d
       0.28748435 0.29440734 0.38601872 0.10892004
000110 7d c8 51 3e 63 38 ee 3d 60 46 cf 3e 16 3e b8 3e
       0.20486636 0.11631849 0.4048338 0.35984868
000120 2c 9b 02 be af 7b 3b 3d ff 7b 24 3e ee 4d ec be
       -0.12754506 0.04577225 0.16062926 -0.46153206
000130 bb 8f 6f 3d 5f bb da 3e 7a cd 8a 3e 51 4c b4 3e
       0.05848668 0.42721078 0.2710989 0.35214475
000140 a5 9a 21 be 60 49 a4 3d 27 a3 66 bd 07 85 cb be
       -0.15781648 0.08021808 -0.056307938 -0.3974993
000150 2b 97 61 be a9 fe 46 be 54 7e 18 be 11 b0 cd be
       -0.22030322 -0.19433083 -0.1489194 -0.4017339
000160 2a 9d cf bd 2a 59 b2 bd 1c f5 8e 3d bf 94 b4 bd
       -0.101373985 -0.08708413 0.06980345 -0.088174336
000170 7b 55 82 bd 44 0f b6 bc a8 b2 32 be ee e0 4f be
       -0.0636396 -0.022224076 -0.17450964 -0.20300648
000180 e7 b0 c1 3d 50 83 33 3d d9 9c a5 bd 41 99 1e bf
       0.094575696 0.0438264 -0.08086557 -0.61952597
000190 f3 cd 06 bf 38 7b b5 be 79 8b dc be cd 13 05 bf
       -0.52658004 -0.3544557 -0.4307516 -0.5198334
0001a0 17 f1 cf be 20 0c 12 bf a9 1e f4 be 9f c0 f6 be
       -0.40613624 -0.5704975 -0.47679642 -0.48193833
0001b0 3c 56 cc be 3c ff d0 be 5b 44 d9 bc 59 fd 81 be
       -0.39909542 -0.40819728 -0.026521852 -0.253886
0001c0 b0 67 37 be 12 29 fc be 6b 89 dc be ab 55 8c be
       -0.17910647 -0.49250084 -0.43073592 -0.2740911
0001d0 03 ec 74 be 11 70 af be 5d 7b d2 be ae 3e a4 be
       -0.23918156 -0.34265187 -0.41109744 -0.3207907
0001e0 29 79 a0 be 04 0c cc be 9b c2 a0 be 41 29 c8 be
       -0.31342438 -0.39852917 -0.31398472 -0.39093974
0001f0 57 2f 17 bf 7d e2 c5 be 99 12 b4 bd 26 43 62 be
       -0.5905661 -0.3864936 -0.0879261 -0.22095928
000200 f3 f2 3c bd 0f 66 2b be 40 07 5b 3d b5 74 59 bd
       -0.046130132 -0.16738151 0.05347371 -0.053089816
000210 d0 7f 56 be ea ba a1 3d 58 85 0d be a8 2a 50 3e
       -0.20947194 0.07896979 -0.13820398 0.20328772
000220 6d 26 06 3e 53 f5 49 be 65 5d a2 3e 72 b6 68 3e
       0.13100596 -0.1972249 0.3171188 0.22725847
000230 eb 58 9c 3e 60 47 c2 3d 4c e9 cb 3e 16 8c ba 3d
       0.3053659 0.0948627 0.3982643 0.091087505
000240 95 39 81 3e 57 31 b0 3e 01 db b1 3e 8c 48 d9 3e
       0.25239244 0.34412643 0.347374 0.4243816
000250 4e 70 ed 3e bf 4c 09 3e 39 34 9b 3e 9b f5 34 3e
       0.46374744 0.13408183 0.3031328 0.17671816
000260 7d ef 68 3e 3f 6e 0d 3e 6a 56 06 3f 40 c3 90 be
       0.22747608 0.13811587 0.5247561 -0.28273964
000270 77 47 bc 3e 3a f1 d0 3e 28 7b 0e be 3b 81 18 3e
       0.36773273 0.4080904 -0.13914168 0.14893048
000280 eb 15 df 3e c6 6c fe bd 29 52 79 3e c1 ba 36 3d
       0.4357141 -0.12423091 0.24347748 0.044611696
000290 65 3d 9d 3e f5 a6 18 3e 2a cb e3 3d 30 d6 be 3e
       0.30710903 0.14907439 0.11122735 0.37272787
0002a0 1e 7b 7d 3e 41 34 aa 3d 8f 45 d0 3c 9d fc 74 3e
       0.24753997 0.08310748 0.025423793 0.2392449
0002b0 81 a2 b2 3e 6b ae 50 3e 85 a0 f6 3d 1a b0 2d 3e
       0.34889606 0.20379035 0.120423354 0.16961709
0002c0 45 0c ba 3d fe ad 9d 3e 79 e6 bf 3e 70 96 88 bc
       0.090843715 0.30796808 0.37480524 -0.016673297
0002d0 78 2c 9a 3e 92 6e af 3e d5 2c 96 3e 13 a7 2c 3e
       0.30112052 0.34264046 0.2933108 0.16860609
0002e0 29 b0 af 3e 14 28 af 3e ab fe a6 3e 06 07 51 3e
       0.34314087 0.34210265 0.3261617 0.20412835
0002f0 50 0f d0 3d eb 8d 5e be d8 91 8c be 04 18 96 be
       0.10159171 -0.21733825 -0.2745502 -0.29315197
000300 fb 1b e2 bd b4 76 98 bd 49 56 86 be cc 57 96 be
       -0.11040493 -0.07444516 -0.26237705 -0.2936386
000310 82 a1 b0 be 6f 3a 83 be bb c8 46 be 32 7c 3f be
       -0.3449822 -0.2563052 -0.1941251 -0.1869972
000320 4b 13 d3 be 21 8d 9c be 9a 41 9c bd f3 65 29 be
       -0.41225657 -0.30576423 -0.076297 -0.16542797
000330 db 19 80 be ef c5 b9 be 6d ce b7 be a0 da d3 be
       -0.25019726 -0.36283824 -0.35899678 -0.41377735
000340 f6 8f 9c be 43 e7 35 be 48 cf eb bd 4c 7d 1c be
       -0.30578583 -0.17764 -0.11514145 -0.15282172
000350 e8 19 d5 be f8 02 b9 be dc 53 91 be 91 03 78 bd
       -0.41621327 -0.36135077 -0.28384292 -0.060550276

bias f4 [8]
000000 98 e5 8e bd b0 f7 69 3d 94 8b 0b be 80 f0 51 be
       -0.06977385 0.05712098 -0.13627464 -0.205019
000010 ba de 29 be b3 c6 ab 3e 5d e1 5d be 4d a1 0f 3e
       -0.1658887 0.33550033 -0.21668 0.14026375

weight f4 [8]
000000 e2 24 87 3f ee 9a b9 3f 22 6c 12 3f 9c 42 b3 3f
       1.0558131 1.4500406 0.5719625 1.4004703
000010 05 bf 25 3f ba f5 47 3f 50 82 8b 3f 39 dc 5a 3e
       0.647446 0.78109324 1.0899143 0.21373071

bias f4 [8]
000000 62 1b 48 3e 93 6c de bc 4a 9f 2c 3e 02 be ed bd
       0.19541696 -0.027151382 0.16857639 -0.11608507
000010 07 41 d3 be ff 56 eb 3d 42 64 df 3e 60 76 2c bf
       -0.4126055 0.114912026 0.43631178 -0.67368126

running_mean f4 [8]
000000 bf 41 9a bd 9c 89 0f 3d 57 75 0f be 26 0c 69 be
       -0.07532071 0.035043344 -0.14009605 -0.2275854
000010 6a f8 26 be 42 cc a5 3e 1e b5 63 be e1 96 15 3e
       -0.163057 0.323824 -0.2223706 0.14608337

running_var f4 [8]
000000 49 a7 f6 41 d1 68 35 40 3b 70 c7 41 a0 83 08 42
       30.831682 2.8345225 24.9298 34.12854
000010 d6 61 28 42 70 0d ed 41 15 5c f0 41 78 c6 1d 42
       42.095543 29.631561 30.044962 39.443817

weight f4 [16, 20]
000000 e8 cd 29 bf 29 14 19 3e 9d de 79 3c f9 b1 0b 3f
       -0.66329813 0.14949097 0.015250829 0.5456844
000010 9a 40 f2 be fe 45 09 3e fa 9f 9b be 85 95 02 3e
       -0.47314912 0.13405606 -0.3039549 0.1275235
000020 4d da 1f 3e 71 0e 7a be 35 e6 a8 3e 1c 39 39 be
       0.15610619 -0.24419571 0.32988134 -0.18088192
000030 9d d0 20 3e 1b 09 63 be aa ff 77 be ac cb d8 be
       0.1570458 -0.22171442 -0.24218622 -0.4234289
000040 e9 e6 c9 3d 59 45 4d be a1 94 67 3d 9d ce 75 3e
       0.09858496 -0.20045985 0.056538228 0.24004598
000050 97 5e e8 3d 14 3b a1 3e f7 3d ee bd 3d 6c b9 3d
       0.113461666 0.31490386 -0.116329126 0.09053848
000060 4f 84 b5 be 9c f3 2b bc 4c fb 7b be 03 5d 83 be
       -0.35452506 -0.010495093 -0.24607581 -0.256569
000070 6f 78 d7 3f a8 6b 2f bf 1d a6 1f be 4d 10 b9 3e
       1.6833628 -0.68523645 -0.15590711 0.3614525
000080 0d 77 03 3f 16 41 bc be eb 40 91 bf 4b 2e 83 3e
       0.5135353 -0.36768407 -1.1347936 0.25621256
000090 b7 96 0d 3d ac 67 2b 3e 41 0b 88 be b4 9b 2a 3f
       0.03456756 0.16738766 -0.26571086 0.66643834
0000a0 ce 1a eb bd 23 ec 54 3d 87 d6 d4 3e db e0 53 bd
       -0.11479722 0.05198301 0.4156992 -0.05172811
0000b0 79 40 9f bc 44 79 ae 3d f3 30 1a 3e 6b b0 a0 bd
       -0.019439923 0.08519223 0.15057735 -0.07846149
0000c0 43 4e c5 be cc 4c 9e 3e 5b bd 0b 3f 11 4b dd 3e
       -0.3853627 0.30917966 0.5458581 0.43221334
0000d0 a9 37 19 3d c9 d0 09 be 2e c0 04 3f 0d bc 18 bf
       0.037406597 -0.13458551 0.5185574 -0.5966194
0000e0 26 1c d6 3e f6 d4 22 bf 4e 82 9b be f1 c6 65 3e
       0.4181835 -0.636062 -0.30372852 0.22439171
0000f0 cb 73 59 3d 1f 22 0a 3d 0d f5 67 be 98 ff 91 3e
       0.053088944 0.033723947 -0.22652073 0.28515315
000100 30 11 a3 be 81 66 04 3f 5e e5 96 3d 02 3d f8 be
       -0.3184905 0.5171891 0.07367967 -0.48484045
000110 3c 94 89 3f e1 11 28 bf 33 7a 90 bd ff 67 b3 3e
       1.0748363 -0.6565228 -0.07054558 0.3504028
000120 ed 7c f4 3e 8a 00 6c be f3 15 30 bf df c7 2a be
       0.4775156 -0.2304708 -0.6878349 -0.16677807
000130 d3 3a 8c 3d fb e1 a8 be d7 6a c2 3e 0a c7 0e 3f
       0.06847157 -0.3298491 0.37972137 0.5577246
000140 d6 d9 b8 be 22 a8 20 3e bf c3 84 be 7d 66 ef 3e
       -0.36103696 0.15689138 -0.25930592 0.4675788
000150 07 e4 63 be 63 0a ba 3e 83 3d e8 3e 8e b0 04 bd
       -0.22254954 0.3633605 0.4535943 -0.03239494
000160 7b b8 68 3e a7 e2 25 3e ca 0b 32 3d 45 4e 30 3e
       0.22726624 0.16199742 0.043468274 0.17217357
000170 13 ea 9f bd 5f 99 a7 be 14 7b 46 be fd 43 f9 bc
       -0.07808318 -0.327342 -0.19382888 -0.030427927
000180 bf 75 6b be 80 37 c0 bd 8d e8 33 3f 3d 12 ae 3e
       -0.22994135 -0.09385586 0.7027672 0.3399829
000190 88 47 b5 3a ae 60 d1 be 58 d9 bf 3e cd 4a bf be
       0.0013830522 -0.40894073 0.37470508 -0.37361756
0001a0 9f 71 4f 3d 4a f5 6b 3d 8b 6d 7e 3e 1c 56 55 3e
       0.050645467 0.057606973 0.24846475 0.2083363
0001b0 ca 53 ad be 72 59 70 bf 03 f6 fb 3e fa 46 71 3f
       -0.33852988 -0.9388648 0.4921113 0.94248927
0001c0 ce a9 25 3f 7c c1 8c bf 40 a8 a7 be b4 fc bd be
       0.64712226 -1.0996547 -0.32745552 -0.3710686
0001d0 15 84 5f 3e 96 7d 99 be 74 79 25 be f3 9c 2c be
       0.21827729 -0.29978627 -0.16159612 -0.16856746
0001e0 69 8e 22 bf 99 25 08 bf 57 05 79 3e d5 7d 4a bc
       -0.6349855 -0.5318237 0.24318443 -0.012359102
0001f0 c5 74 11 bc 62 0e a9 be d4 de 02 3e 25 ad f9 3e
       -0.008877938 -0.33018786 0.12780315 0.4876491
000200 78 e8 29 bf 38 02 8c 3f 25 9d 1c be 0e a4 0a 3e
       -0.66370344 1.0938177 -0.15294321 0.13539144
000210 bc 3d 46 3e 39 84 41 bf 34 c7 07 3f 14 ce a4 3c
       0.19359487 -0.7559238 0.53038335 0.020117797
000220 28 ed 93 3e 6b d6 c9 be 8d 41 fd be fd f7 ea 3d
       0.28891873 -0.394214 -0.49464074 0.11473081
000230 a4 c7 a6 be a0 5b 20 3e eb 59 61 bc 1b 0e e4 be
       -0.3257419 0.15659952 -0.013754348 -0.44542012
000240 43 22 2a 3d 0f 96 54 bc b7 dc 93 3f f6 2c 02 3e
       0.04153658 -0.01297523 1.1551732 0.12712464
000250 a9 d8 bc be 07 b8 b1 bd 73 c6 da 3d 63 e1 5e 3e
       -0.3688405 -0.086776786 0.106823824 0.21765666
000260 c1 45 85 be f5 bb 29 bf 3c c0 8f 3e 1f de 51 bf
       -0.2602978 -0.66302425 0.2807635 -0.81979555
000270 ee b3 6d 3e 0f 16 9a be 4b 18 ba 3c 02 c3 da 3e
       0.23213169 -0.30094954 0.022716662 0.42726904
000280 51 ba 78 3d 65 8d 0d 3e 96 80 9a be 50 9d 63 be
       0.06072456 0.13823469 -0.30176228 -0.22227979
000290 f4 82 e6 3e db 27 17 be 9d 6a b3 bc 97 c3 17 bf
       0.45021784 -0.14761297 -0.021901423 -0.5928282
0002a0 a2 04 cd be 7e a9 21 be 55 38 92 3e 1a b6 99 be
       -0.40042597 -0.15787312 0.28558603 -0.30021745
0002b0 dc 1b 2a be 20 d9 57 bf 19 fd f4 3e b6 9e 2a 3e
       -0.1661219 -0.8431568 0.47849348 0.16662106
0002c0 0a 77 a3 be d7 e0 c9 3e d1 87 2b 3e 88 32 14 3e
       -0.31926757 0.39429352 0.16751029 0.14472401
0002d0 32 4d 39 be 0a 58 87 3e 6e 4d d0 be ce 84 16 3e
       -0.18095854 0.26434356 -0.40684074 0.14699098
0002e0 29 52 bd be bb e5 48 be aa 5b a7 be e8 c6 b1 3e
       -0.36976746 -0.19618885 -0.32687122 0.34722066
0002f0 0b fb b7 3f 53 91 90 be 24 b8 dd 3e 5c e6 3c bc
       1.4373487 -0.28235874 0.4330455 -0.011529531
000300 5a 62 92 3e 0a c1 6e 3d d1 b9 62 bf d9 80 bb bd
       0.2859066 0.058289565 -0.88564783 -0.09155435
000310 1b 9a 09 be c0 0e 6f be 30 30 b2 3e c6 2b 72 3f
       -0.13437693 -0.2334547 0.3480239 0.9459804
000320 22 54 34 bc 39 3a e1 be 4a bc 9a 3c a0 65 d3 be
       -0.011006387 -0.43989733 0.018888611 -0.4128847
000330 c2 76 cd 3e b9 02 fd 3e 8f ea 71 3f e0 89 e2 be
       0.40129668 0.4941614 0.94498533 -0.44245815
000340 26 c3 23 bf 0a c3 b1 bd 3a 47 a5 be 7e 3a b8 3e
       -0.6396965 -0.08679779 -0.32280904 0.35982126
000350 c2 b5 17 3e c3 a6 26 bf e0 99 b3 3d 10 29 ad be
       0.14815429 -0.6509821 0.08769584 -0.3382039
000360 fd f3 1a be 7e af 78 3e 35 77 04 3e 17 33 a2 3d
       -0.15132137 0.24285695 0.12936099 0.07919901
000370 d1 ae 89 3e 64 85 ef 3e d6 d2 29 3e 88 56 c6 3e
       0.26891187 0.46781456 0.16584334 0.38737893
000380 f4 2e dc 3e 43 93 dd be d1 8f 02 be 1b 8f 28 3e
       0.43004572 -0.43276414 -0.12750174 0.1646084
000390 31 85 02 bf 6b 35 2a 3e cd fc 07 3e 47 71 b9 be
       -0.50984484 0.1662194 0.1328003 -0.36219236
0003a0 9c ec bf 3d 56 5a f5 3e 4f c2 35 3e 7b ef 47 bf
       0.093713015 0.47920483 0.17749904 -0.78099793
0003b0 b1 5f 65 3e 08 b9 1b 3c e5 b5 6c be 2a 34 9d be
       0.22399785 0.009504564 -0.23116262 -0.3070386
0003c0 c9 32 8d be 6e fb 38 be ed f7 40 bf 07 3b ce 3a
       -0.27577808 -0.18064663 -0.75378305 0.0015734144
0003d0 91 48 f1 be 31 fb fb be 87 e1 f3 3e 3c c7 80 3e
       -0.47125676 -0.4921508 0.47633 0.25152004
0003e0 9a 38 91 3f 77 0f b4 3d 4c 18 98 3e 91 43 2f be
       1.1345398 0.08792012 0.29706037 -0.17115618
0003f0 6d c0 12 be 51 e4 09 bf dd 3e 86 bf e1 dc c7 3e
       -0.14331217 -0.5386401 -1.0487934 0.39035705

bias f4 [16]
000000 0c 36 44 3e 9d d2 1f 3d b4 8e a1 3d 53 5a 17 3e
       0.19161242 0.039019216 0.078885466 0.1478055
000010 45 9a 5b 3e e6 aa a7 bd e1 be 1c bd 5b 6a 04 3e
       0.21445568 -0.08186893 -0.038267974 0.12931196
000020 47 bb a6 bd a2 4a cd 3d 03 50 2e bd 22 09 28 be
       -0.08141189 0.10024001 -0.042556774 -0.16409734
000030 54 73 d4 3d a3 d2 92 3c 5e bc b4 3d 70 06 58 3e
       0.103735596 0.017922705 0.08824991 0.21096206

weight f4 [16]
000000 a5 7f 58 3f c9 ac ad 3f a9 da 3f 3f 83 72 d2 3f
       0.8456977 1.3568355 0.74943024 1.6441196
000010 8e 4f 64 3f c1 d2 ad 3f 0f 0e 2d 3f 52 72 f8 3e
       0.8918389 1.3579942 0.67599577 0.4852472
000020 0f 8a 64 3f a5 07 c5 3f 4f e2 91 3f 10 5e ac 3e
       0.8927316 1.5392958 1.1397189 0.33665514
000030 6e 7c 9f 3f a6 11 19 3f d7 f3 93 3f 90 51 a9 3f
       1.2459848 0.59792554 1.1558789 1.3228016

bias f4 [16]
000000 be 65 41 3e 18 cb 3f be 48 3f 8e 3b c7 24 67 be
       0.18886468 -0.18729818 0.00434104 -0.22572623
000010 a9 ad 90 be 29 c0 3e 3e 07 3f 5f bd ed ae a9 be
       -0.28257492 0.18627991 -0.054503467 -0.3314127
000020 22 7e 01 bd 17 45 0d be 6b 16 a0 3b 25 15 f6 be
       -0.03161443 -0.13795887 0.004885485 -0.48063007
000030 aa 71 6b 3d dc 6b b5 be b1 e3 a3 3e 90 59 41 be
       0.057481445 -0.35433853 0.32009652 -0.18881822

running_mean f4 [16]
000000 ab 47 98 40 4a 37 87 3e 6a 76 77 3d 37 ec b6 3f
       4.7587485 0.2640937 0.060415663 1.4290837
000010 56 0f 82 40 d6 61 17 c0 4a 3a a7 bd 0e 50 57 c0
       4.064372 -2.3653464 -0.08165415 -3.3642612
000020 0e 2d e8 bf 7f 9d 9e 3f 63 53 91 c0 6f ec 59 40
       -1.813875 1.2391814 -4.541429 3.4050558
000030 d0 a7 8e 3e 96 8c ee bf 94 46 43 3c c2 58 2f 3f
       0.27862406 -1.8636653 0.011918683 0.6849481

running_var f4 [16]
000000 f8 71 e4 40 dc 30 c5 3f 33 d7 d5 3f 6f 60 ce 3f
       7.138912 1.5405536 1.6706299 1.6123179
000010 6a 89 b4 40 f7 14 9d 40 ef 94 b5 3f f0 c8 91 40
       5.641774 4.908809 1.4186076 4.5557785
000020 4d 96 b5 3f 9e 92 01 40 ea 3e c1 40 1b d2 7a 40
       1.4186493 2.0245738 6.03893 3.9190738
000030 f1 05 23 40 03 e3 c7 3f 94 86 72 3f 3e be c2 3f
       2.5472376 1.5616153 0.947366 1.5214307

weight f4 [16, 32]
000000 dc 62 df be 25 b5 29 be bd 7e b8 be 1f f2 c1 be
       -0.4363011 -0.16573007 -0.36034194 -0.37880036
000010 2d 93 a7 be fa a9 a1 be d2 86 00 bf 8f 21 b8 bd
       -0.32729474 -0.31574994 -0.5020572 -0.08990776
000020 de 1a 98 be 1d 0b 44 be 36 05 7e be ba 66 5a be
       -0.29707998 -0.19144864 -0.24806675 -0.2132825
000030 5a 37 58 be 9a ca b1 bd bd df 0b be 77 38 8b 3c
       -0.21114865 -0.08681221 -0.13659568 0.016994698
000040 9b d3 a8 3e a8 fc b0 bd 82 74 0d bf 63 ce 70 be
       0.32973942 -0.0864194 -0.552559 -0.2351623
000050 31 ab 8e 3f 1e 7e 2e bf 69 53 81 3e 6d b0 bb bc
       1.1145993 -0.6816119 0.2525895 -0.022911275
000060 92 79 e4 3d 9b 87 a3 3e a8 a7 52 be 25 b9 0c be
       0.11156 0.31939396 -0.20571768 -0.13742502
000070 08 3a 78 3e 4b ea e7 3d c8 e5 53 3e 97 31 70 3d
       0.24240887 0.11323985 0.20693123 0.058641043
000080 8b 34 11 be b9 1f 07 3f 7a 69 0d 3d d0 d9 ec be
       -0.141802 0.5278278 0.03452442 -0.46259928
000090 94 4e 35 be 35 44 ba 3d d6 d8 a4 3e 8b 96 21 3e
       -0.17705756 0.09095041 0.32196683 0.15780084
0000a0 a4 b3 e3 be a2 b6 3d 3e 56 f0 bb be 00 9d 0d bf
       -0.44472992 0.185267 -0.367068 -0.5531769
0000b0 ea 08 c2 bd 5a 53 05 3d 59 12 e7 3c 60 4c 67 be
       -0.094743565 0.032550193 0.028206991 -0.22587729
0000c0 2f b0 48 be 21 58 ca be 9a c9 86 3e 69 b4 19 bf
       -0.19598459 -0.39520362 0.26325685 -0.6004091
0000d0 ca 43 c8 be 0a 9c 92 3e e6 8c ff 3d e9 e4 b9 3e
       -0.3911422 0.28634673 0.12478046 0.36307457
0000e0 94 9f 2c 3c ac 66 22 bf 6e ec 0c 3e d6 db 89 3d
       0.010536093 -0.63437915 0.13762066 0.067313835
0000f0 c3 70 3c be 48 48 fd 3d 0b e1 e7 be 9e 23 61 bf
       -0.1840239 0.12367302 -0.45288882 -0.8794497
000100 5c 4d b7 3e 95 5e 30 bf 32 b4 34 3e 0a 57 68 3e
       0.35801208 -0.6889432 0.17646864 0.22689453
000110 51 03 3b 3d 45 b6 14 3e f7 40 70 3c 56 c7 5e be
       0.04565746 0.14522655 0.014663926 -0.21755728
000120 f1 87 a9 3e b2 ea 86 bd 6e 7e 04 3e 60 e3 33 bd
       0.33111528 -0.06587733 0.12938854 -0.043918014
000130 ab cb 8f be 7c 41 5c ba 1a da cd bc 23 84 4c be
       -0.28085074 -0.0008402092 -0.025128413 -0.19972281
000140 a2 75 18 3e f2 0a df bd 0c 5f cf be 63 dc 38 3e
       0.14888623 -0.108907595 -0.40502203 0.18052821
000150 af 62 00 3e 62 15 f6 be a6 2f 08 bf e5 f6 87 be
       0.12537645 -0.4806319 -0.53197706 -0.26555553
000160 ba 6e 91 3e fe 09 2d 3e 8b fc 4d 3e fb cf d1 bd
       0.2840479 0.16898343 0.20115869 -0.10244747
000170 f9 26 13 3f 24 db 12 3e f3 6e 53 3e a9 d6 94 3e
       0.5748134 0.14341408 0.20647793 0.29070023
000180 e9 75 08 be 27 c7 3d bf 7f 00 2b be ed a3 09 3f
       -0.13326229 -0.7413201 -0.16699408 0.53765756
000190 1b b6 51 3e 3c 97 7e be 5a e0 dc be b8 a8 9d bd
       0.20479624 -0.24862379 -0.43139917 -0.07698196
0001a0 65 8a 4d be 17 cb 7f be 49 83 bd bc 55 d2 4c bc
       -0.20072325 -0.24979816 -0.02313389 -0.012501319
0001b0 15 45 21 bc 2e 88 0d bf 60 c2 58 be f5 dd 22 bd
       -0.009843131 -0.5528592 -0.21167898 -0.039762456
0001c0 05 eb f0 bc c3 7f cb 3d df a0 cd be ab bb df 3c
       -0.029408941 0.09936478 -0.40161797 0.027311167
0001d0 af 79 21 3e fe da 9a be c6 ef cd be 16 07 0f be
       0.15769075 -0.30245203 -0.40221995 -0.13967547
0001e0 2a f8 94 3e 88 56 41 bd 5f 25 c7 bd b0 d6 00 3f
       0.29095584 -0.047201663 -0.09723925 0.5032759
0001f0 ad e1 9e bd d4 57 e7 3d c7 b6 53 3e 94 73 89 be
       -0.07757888 0.11296049 0.20675193 -0.26845992
000200 ab 52 86 bc 8e 1e 62 3f e2 77 32 be 8c 1a 03 bf
       -0.016396841 0.8832787 -0.17428544 -0.5121238
000210 5b ab 4d be ac e6 eb 3e c9 ab a3 3e 4f f4 46 be
       -0.20084898 0.46074426 0.31967 -0.19429134
000220 25 8d ae 3d 04 4c d7 3e 4a b1 5e be e1 8a 32 be
       0.08523015 0.42050183 -0.21747318 -0.1743579
000230 40 e5 9d bd 3d b0 e9 3d e7 6a fa 3d 02 eb aa bd
       -0.077097416 0.11410568 0.12227421 -0.083456054
000240 34 67 46 3e 45 0d 47 bf 3e 07 3c 3e b7 6d 0b bf
       0.19375306 -0.7775462 0.18362138 -0.54464287
000250 51 52 c3 be 55 cf 80 bd d3 15 a2 3d 14 95 12 3e
       -0.3814874 -0.062895454 0.07914319 0.14314681
000260 da 5c a7 3e b1 7d bb be 9f 4f b4 3c 75 3a 7f bd
       0.32688028 -0.36619332 0.022010623 -0.06231161
000270 25 1e b3 3d 4a ed 32 bd e6 73 c9 be 9b 8c 17 bf
       0.08745984 -0.043683328 -0.39346236 -0.5919892
000280 c3 ac ad 3b f8 06 07 3f cb 2b 73 3d f0 7d 2c 3e
       0.005300136 0.5274501 0.059367936 0.16844916
000290 d3 5a 37 3e 50 6a b2 3d 00 d7 21 3e d1 f3 5a bd
       0.1790574 0.08711684 0.15804672 -0.053455178
0002a0 60 b3 cd be 06 59 8e be 86 86 77 bd f6 2f 27 bf
       -0.40175915 -0.27802294 -0.060431026 -0.6530756
0002b0 62 90 18 bf 1e b5 cb 3c 89 b6 69 bc 53 7f d9 be
       -0.5959531 0.024866637 -0.014264711 -0.42479953
0002c0 0a a7 98 be b8 37 26 bf 34 f7 1a 3e 32 b1 85 be
       -0.2981494 -0.6492877 0.15133363 -0.26111752
0002d0 8d 31 b7 be 8a 56 26 3e c8 f5 07 bd 9f 18 2a be
       -0.35779992 0.1624395 -0.03319338 -0.16610955
0002e0 4a 62 0d be b8 04 31 bf 02 9f b4 3e fd 4f 6a be
       -0.13807026 -0.69147825 0.35277563 -0.22882076
0002f0 ca e9 04 bf 36 f9 d6 bd b6 70 4a be cf 2c 3d bf
       -0.51919234 -0.10496752 -0.19769558 -0.738965
000300 07 5a 5f bd 7d 95 24 3e 91 02 3d 3e 9c e3 28 3d
       -0.054529216 0.1607265 0.1845801 0.04123269
000310 e5 35 79 bc 58 d2 35 be 22 82 be be 73 f8 95 3c
       -0.015210603 -0.17756021 -0.37208658 0.018306946
000320 12 78 1d be 56 53 b2 3e 95 60 66 be c0 1c bf 3e
       -0.15377834 0.34829205 -0.2249778 0.37326622
000330 57 2c 74 bd f8 e9 65 be e6 62 a6 be ae 60 96 bd
       -0.0596126 -0.22452533 -0.3249733 -0.07342659
000340 87 68 bc 3e 84 c9 7c 3e 52 a6 0c be 24 de 1f 3f
       0.36798498 0.24686247 -0.13735321 0.62448335
000350 e3 fd 9b 3e 4d 38 15 bf 11 61 cd be 31 56 92 be
       0.30467138 -0.58289033 -0.40113118 -0.28581384
000360 dd a8 26 bf d6 01 df 3d 20 f8 3d bf b3 fa 3d be
       -0.65101415 0.10889022 -0.74206734 -0.18552665
000370 93 a1 d7 bd 88 b4 d4 be 4d fb 01 be b6 a4 0e 3f
       -0.10528865 -0.41543984 -0.1269352 0.5572008
000380 e7 b1 12 bf 84 46 1b be 0f 0f b9 be 13 81 b4 be
       -0.5730271 -0.15163618 -0.361443 -0.35254726
000390 22 72 c7 be 6b 08 66 be c7 d3 ee be db b6 02 be
       -0.38954264 -0.22464149 -0.46645948 -0.12765066
0003a0 38 1d 96 3e 5a d6 13 3f c8 39 e0 bc b7 7b 38 3f
       0.29319167 0.5774895 -0.027371302 0.72063774
0003b0 ca eb 66 3e 99 e2 98 be 2b 5e e2 be 1a 03 13 3e
       0.22550884 -0.2986038 -0.4421247 0.14356652
0003c0 d8 be 50 be 47 6f 97 3d fd 39 cd be 50 a5 66 3e
       -0.20385301 0.07394271 -0.40083304 0.22523999
0003d0 0d 5b 05 3d 9d 8a 05 bf 5d fe 3c 3c 77 63 c5 bc
       0.032557536 -0.5216463 0.011535254 -0.02409528
0003e0 7d 45 ab 3e 99 4c ec 3d f3 63 03 bf 63 23 58 3e
       0.33451453 0.11538047 -0.51324385 0.21107249
0003f0 4c 15 9f be b8 5b 01 be 31 38 22 be 5d 62 97 3e
       -0.31070936 -0.12632644 -0.15841748 0.29567233

bias f4 [16]
000000 c6 bd 07 3c 72 cd 07 3e b0 a7 e7 bd 52 de 88 3d
       0.008284992 0.13261965 -0.11311281 0.06683029
000010 84 ab 64 bd 57 ed dc 3a 64 b6 01 be 51 45 8d bd
       -0.055827633 0.0016855401 -0.12667233 -0.06897987
000020 f8 6e 9b bd 75 e4 1f bd cd fa 8b bd 2d 03 52 be
       -0.07589525 -0.039036233 -0.06834946 -0.20509024
000030 e2 9d ba 3c 5c 40 2f 3e 55 d3 cb 3d 77 56 c4 3c
       0.022780363 0.17114395 0.09952418 0.02396701

weight f4 [16]
000000 c6 8e 81 3f 34 90 89 3f 21 78 69 3f 67 13 29 3f
       1.0121696 1.0747132 0.9119893 0.6604523
000010 83 1a 5b 3f 05 cd 98 3f 70 62 4b 3f b6 47 24 3f
       0.8558733 1.1937567 0.7944708 0.6417192
000020 17 b0 58 3f 57 ad 80 3f 5e 3a 99 3f 71 9a 3e 3f
       0.8464369 1.0052899 1.1970937 0.7445441
000030 26 77 40 3f 14 80 80 3f e1 42 74 3f 6d 3e 5f 3f
       0.75181806 1.0039086 0.9541455 0.8720463

bias f4 [16]
000000 e0 29 d8 3d 09 4c c7 3d ee f8 21 3f fb 1e 50 3e
       0.10554862 0.097312994 0.6327046 0.20324318
000010 a5 94 6e be 66 84 90 3e 85 39 64 3e f8 78 d6 be
       -0.23298891 0.28226012 0.22287567 -0.41889167
000020 3f a9 f5 be 35 35 94 3e 89 e1 b6 3e 6a 5a 7e be
       -0.47980687 0.28946844 0.35718945 -0.24839178
000030 1c 9f 15 3d 83 db 96 3e 5f 26 6c be 2e 45 04 3f
       0.03652869 0.2946435 -0.23061512 0.5166806

running_mean f4 [16]
000000 39 02 f7 c0 3b f9 33 bf 46 e3 07 3d 7d c4 9f c0
       -7.7190213 -0.7030217 0.03317573 -4.9927354
000010 d3 86 1d 40 5f cf 77 3f f7 b1 6e bf 95 7a d4 c0
       2.461354 0.968008 -0.932403 -6.6399636
000020 c5 c4 a6 bf b0 d2 05 41 68 4c af 40 62 29 35 c0
       -1.3028799 8.363937 5.478077 -2.8306508
000030 23 17 20 41 84 a6 80 40 66 c5 07 3f e0 a7 4b bf
       10.005649 4.0203266 0.5303558 -0.7955303

running_var f4 [16]
000000 60 c1 f7 40 d8 e5 36 41 f7 8c b9 40 65 26 b7 40
       7.7423553 11.431114 5.7984576 5.723437
000010 c1 d4 19 41 8b e0 20 41 5b 56 05 41 47 33 02 41
       9.614442 10.05482 8.333583 8.137519
000020 23 e4 56 41 c1 66 65 41 b9 56 19 41 0f 02 01 41
       13.430697 14.337586 9.583673 8.063003
000030 a8 00 96 41 af 8e 38 41 53 c6 9f 40 56 77 29 41
       18.75032 11.534835 4.9929595 10.591635

weight f4 [3, 16]
000000 38 50 33 3e d9 bc 5c bd e4 96 c4 3e 65 e8 8b 3e
       0.1751107 -0.053891037 0.3839637 0.2732574
000010 65 13 35 bd cf 06 c7 3d aa 38 b9 3e db 3c 7b 3e
       -0.04420795 0.097180955 0.36176044 0.24534933
000020 ed 08 f7 bd f7 3b ed 3e 1b 17 5e 3e 78 22 99 3e
       -0.12062249 0.46334812 0.21688502 0.2990911
000030 74 5c 13 3e 7a 09 fd 3e 4f 2c 53 bd 42 b1 82 3e
       0.14390737 0.49421293 -0.051555928 0.25525862
000040 5f 1e 22 3e 9b 3e 66 3e f1 0f c3 3e 9b 74 35 3e
       0.15831898 0.2248482 0.380981 0.17720263
000050 00 87 e9 3e 48 f4 95 3e 63 a9 87 3e 6f 75 13 bd
       0.4561081 0.29287934 0.2649642 -0.036000665
000060 17 6d ba 3e a8 db d1 3e d6 dd 0f 3e c7 1b 07 3f
       0.36411354 0.40987897 0.14049467 0.5277676
000070 e2 3e 40 3d 27 af 86 3e 8b c4 1a 3f ca 45 a1 3e
       0.04693497 0.26305506 0.6045615 0.31498557
000080 33 75 40 bf 64 a9 69 bf 2d 6a 13 bf 0e c5 3c bf
       -0.7517883 -0.91274095 -0.57583886 -0.7373818
000090 79 96 8a be 15 d7 6c bf 24 44 d7 be 1d 8f 86 be
       -0.27067927 -0.9251569 -0.42044175 -0.26281062
0000a0 58 53 ad be 38 52 ee be c3 67 46 bf 98 f2 5b be
       -0.3385265 -0.46547103 -0.7750208 -0.21479261
0000b0 57 20 14 bf cd 63 49 bf 1e 7e 32 be 25 c8 48 bf
       -0.57861847 -0.7866791 -0.17430922 -0.78430396

bias f4 [3]
000000 a4 42 02 3f d0 b6 20 3f c3 8b 5d bf
       0.50882936 0.6277895 -0.86541384
